mnist_transformer_model.pth (torch, 914790 bytes, 116 tensors)

cls f4 [1, 1, 64]
000000 7b 52 c6 3e 8a 0a 02 3e 99 d3 37 3e ed ce ee be
       0.38734803 0.12699333 0.17951812 -0.46642247
000010 42 0d 0f 3e 7a 92 85 be fd 4b a8 bb 81 45 92 be
       0.13969901 -0.26088315 -0.0051360116 -0.28568652
000020 86 b8 b9 bd 8a 42 57 3e 3c 47 ee bc b3 28 5d be
       -0.09068398 0.21021476 -0.029086702 -0.21597557
000030 63 1a b5 bd bf 93 28 be 48 6c ab bd d9 4e 36 3d
       -0.088429235 -0.1646261 -0.083702624 0.04450879
000040 95 95 a5 3e d8 c7 a8 3c 71 13 3c 3d 77 1c ac 3d
       0.32340685 0.020603105 0.04591698 0.08403867
000050 fc e8 29 bc c8 da 8b 3d cc 1d ad 3d f2 cc cb 3e
       -0.010370489 0.068288386 0.08452949 0.39804798
000060 b5 b5 34 3e e6 6c 14 3e fe 13 9c 3d e2 d7 94 3d
       0.1764744 0.14494666 0.07621001 0.07267739
000070 83 ec ed bc 23 04 5f bd 3f 71 0d bd 15 5a 17 3e
       -0.029043442 -0.054447304 -0.034531828 0.14780457
000080 f4 e0 52 be c9 08 14 be cd 5d 03 3b f3 2d 95 3e
       -0.20593625 -0.14456476 0.0020044923 0.2913662
000090 a3 66 b4 3b 36 3f 9c bc 14 ba ba bc 49 80 f0 bd
       0.0055053993 -0.01907311 -0.022793807 -0.117432185
0000a0 f2 95 8e be 7b cb 12 3e 7f 3b e1 bd 70 f8 bd bd
       -0.27848774 0.14335434 -0.10997676 -0.09275901
0000b0 f5 d9 9b be f7 73 07 3f 96 2d 1e be 46 01 89 bd
       -0.30439726 0.52911323 -0.15447077 -0.06689696
0000c0 7e 42 01 be e8 50 b3 bd dd 40 d4 bc 84 54 e0 3d
       -0.12623021 -0.08755666 -0.025909835 0.1095362
0000d0 e2 bd 95 bd 09 4f 26 3e 87 ea 75 bd 41 0f 36 bd
       -0.07311608 0.16241087 -0.060038116 -0.04444814
0000e0 83 89 96 be 48 49 30 3d 7b e0 c5 3c 99 1f cc 3d
       -0.29401788 0.043038636 0.024154892 0.09966964
0000f0 02 f4 26 3b 71 cb c4 3e 76 df 43 be f3 95 23 3e
       0.002547503 0.38436463 -0.19128212 0.1597517

emb.weight f4 [64, 196]
000000 74 0d a4 3b 84 04 93 bd 83 46 b5 3c 2c 63 e1 bc
       0.0050064865 -0.07178596 0.02212835 -0.02751311
000010 b8 84 c3 3c 99 80 c6 3c a9 5d e0 3d e2 3c e7 3d
       0.023866996 0.024231242 0.10955364 0.11290909
000020 a1 b8 0f 3e 4c 07 7c 3d e2 b8 42 bc f6 0b a0 bd
       0.14035274 0.061530396 -0.0118849 -0.07814781
000030 a3 3e 8d bd 8b 9e 2c 3d 36 64 25 3d d1 2e 74 bc
       -0.06896713 0.042143386 0.04037877 -0.01490374
000040 a3 bf 9d bd c3 62 af bd e8 84 1e 3d 99 08 8a ba
       -0.077025674 -0.08563759 0.038700968 -0.0010531127
000050 21 6f 37 3d 01 5c b7 3b e7 17 02 3d 04 f3 83 bc
       0.044783715 0.0055956845 0.031761076 -0.01610709
000060 89 b9 74 ba 23 4c 2d bd 41 60 db bb 73 aa 29 3d
       -0.0009335508 -0.042308938 -0.006694824 0.04142232
000070 b2 8e 88 3d ff 6b f4 bc b3 ee ae bd fa 7b 5d bd
       0.06667842 -0.029836653 -0.08541622 -0.05407331
000080 38 5c 89 3c 96 d4 1d bd 0f a3 ca bc 29 b5 72 bd
       0.016767606 -0.038532816 -0.024735956 -0.0592548
000090 0a b5 76 bc eb 2a 19 3d c1 36 5f 3b dd e0 83 bd
       -0.0150578115 0.037394445 0.0034059735 -0.06439374
0000a0 5b d1 e2 3c 2d eb 0d ba 9a 19 84 bd 01 12 ba bd
       0.02768772 -0.0005413767 -0.064501956 -0.09085465
0000b0 bf a6 3d bd e3 63 ec b9 b5 19 1d 3d 98 83 1f bc
       -0.0463016 -0.0004508785 0.038354594 -0.009735964
0000c0 6c 49 74 3c cf 5c 81 bd bc 24 56 bd 3c d2 bb bc
       0.014910083 -0.0631653 -0.052281126 -0.022927396
0000d0 de 02 a2 ba db 99 41 bd fc f7 c0 3c 81 4c 1d bd
       -0.0012360474 -0.04726587 0.023555748 -0.038403038
0000e0 72 8b 3a bc a9 a1 1a bd 62 c3 85 3c 3b be 63 bc
       -0.011385785 -0.037751827 0.016328517 -0.013900335
0000f0 58 4c c0 bc 8b c5 88 bd 96 68 64 bd 01 6a 8c bd
       -0.023473904 -0.06678303 -0.055763803 -0.06856156
000100 4c 31 84 3c e6 f7 3b bd e7 46 bf 3b 2c d7 91 3c
       0.016136788 -0.04589071 0.0058373096 0.017802797
000110 e4 73 9a bd 10 94 96 bc 58 46 2d bd 38 30 83 bd
       -0.07541636 -0.018381149 -0.042303413 -0.06405681
000120 5d e3 a7 bc 4b 7c 85 3b 42 0f 4d 3d 9c e4 7b bb
       -0.020494157 0.0040736548 0.05006338 -0.0038435822
000130 71 b4 28 3c d6 f2 f0 bc 94 04 14 3d 04 7c 6d bd
       0.010296927 -0.029412668 0.03613718 -0.0579796
000140 82 9e 0c bc 42 26 28 bd 17 74 ad bc 50 b4 9e bb
       -0.008582713 -0.04105211 -0.02117352 -0.0048432723
000150 54 35 08 3d 05 5b 69 bd 34 6c 1e 3d 46 3c 39 3d
       0.033253983 -0.05697157 0.03867741 0.045223497
000160 b2 31 3e 3d 66 53 d0 bc fe 32 ac 3d 99 1f 4b bc
       0.046434112 -0.025430392 0.084081635 -0.01239767
000170 b2 60 2c 3d 44 7b da 3c 7f 7b 1c 3d 34 61 04 bd
       0.042084403 0.026670106 0.038203713 -0.032319263
000180 fe 91 1a 3d 3a 62 03 3c e1 8d 91 3c f4 14 32 bd
       0.037736885 0.0080190245 0.017767848 -0.043477014
000190 99 02 ed 3c 11 9f 92 3c 42 4e fb 3c b3 26 49 3d
       0.028931903 0.017898114 0.030676965 0.049109172
0001a0 38 4f 60 3d 13 0c cc 3c ec bc 7f 3a 41 b2 71 bc
       0.05476305 0.024908101 0.00097556296 -0.014751972
0001b0 b7 d4 1f 3d e6 cc 35 bd 43 16 9b bd ac 93 0b bb
       0.03902122 -0.04438486 -0.075726055 -0.0021297736
0001c0 f5 f2 0f bd 07 38 dd 3c 77 3b 1d 3d cd 46 e9 bb
       -0.03514381 0.027004255 0.03838679 -0.007119036
0001d0 8d 10 a0 3d 2a 99 e5 3c 4c 93 04 3d 15 c7 02 3d
       0.07815657 0.028027136 0.032367036 0.03192814
0001e0 01 22 61 3d db 09 b6 3c a1 d1 0c bd 49 f5 52 bd
       0.05496407 0.022221496 -0.034379605 -0.051503453
0001f0 d0 ad 3e bd 62 12 7a 3c 49 ba 2a bd b8 91 1f bd
       -0.04655248 0.015263172 -0.04168156 -0.038957328
000200 98 6e 18 3d ff 3f 28 3d 91 9b 26 3d 08 e0 14 3d
       0.037214845 0.041076656 0.040675703 0.036346465
000210 c5 41 18 3d fd f9 21 3c 87 27 db 3a 72 72 c2 bc
       0.037172098 0.009886262 0.0016720154 -0.023736212
000220 fc 6f 70 bd 25 08 85 bd fa a0 ee 3c 7f 9d 25 3c
       -0.058700547 -0.06495694 0.029129494 0.010108351
000230 24 91 86 bc ff 84 cf bc d0 13 b5 bc cd 21 e6 bc
       -0.01642663 -0.025331972 -0.022104174 -0.02809229
000240 22 7c 4f bd ef 29 d6 3c 2b 11 ff 3c 3f bd 79 3c
       -0.05065549 0.026143042 0.031136116 0.015242874
000250 8a 47 e9 bc a4 4f db bc 65 91 be bb 5e c1 41 3c
       -0.028476495 -0.026771374 -0.005815672 0.0118258875
000260 d0 37 67 3a d7 ce e8 bc ce bb 5c 3b b3 2a 9a 3c
       0.00088202674 -0.028418941 0.0033681276 0.018819189
000270 76 41 6b bc ab 68 60 3c d0 fb 60 bd 5f ef c3 bc
       -0.014358869 0.01369683 -0.054927647 -0.023917852
000280 c6 8d 38 bd df a7 a9 3c 85 5f 86 bb cd 03 b4 3b
       -0.04505708 0.02070993 -0.0041007423 0.005493617
000290 c7 2b 01 bd 09 47 4e bd 7d fc 14 bd a4 96 ee 3c
       -0.03153589 -0.050360713 -0.036373604 0.029124565
0002a0 09 a8 8f 3c 92 77 4e 3d 0c 1a b4 3c ac 6d 64 3b
       0.01753618 0.050407 0.021985076 0.0034855409
0002b0 66 6d 29 bc b4 a5 aa bd 7b d2 84 bd c8 e5 3b bd
       -0.010341024 -0.083323866 -0.064854585 -0.045873433
0002c0 1d 50 19 3c 95 bb 3c bd 6b c0 14 3d 4e 05 ad bc
       0.009357479 -0.04607733 0.036316317 -0.021120694
0002d0 19 f2 ad 3c 9d f3 1f bd 54 df 15 bd 6b 9e ea 3b
       0.021233605 -0.039050687 -0.036589935 0.007159998
0002e0 fb ee 59 bd 9b 56 08 3d 28 c5 12 bc 20 b2 4f bd
       -0.053206425 0.03328572 -0.0089581385 -0.050706983
0002f0 60 1b 9d bd da 5a 5c bd c3 a3 96 bc 0e f9 02 bd
       -0.07671237 -0.05379758 -0.018388635 -0.0319758
000300 4b 77 30 3d 4a 1f a5 bc 95 20 02 3d 8b c6 15 3d
       0.043082517 -0.020156521 0.031769354 0.0365663
000310 ce 84 82 3d 58 73 09 bd f0 3a 39 3d 89 c5 a2 bc
       0.06372987 -0.033557266 0.045222223 -0.019869583
000320 6d b3 85 3c 67 d9 2e 3d 38 4b 3b 3c 1f 78 05 bc
       0.016320908 0.0426878 0.011431508 -0.008146315
000330 f7 05 24 bb 56 68 17 bd 6a e7 ae bb 51 f8 6e bd
       -0.002502797 -0.036964737 -0.0053376453 -0.05834228
000340 89 00 d5 3b 66 1b ab 3d 6f 12 91 3d 13 a3 2f 3b
       0.006500308 0.08354835 0.07083594 0.002680008
000350 a4 0d ba bc c6 26 af bb 07 73 8d bc 49 d2 a6 bd
       -0.022711582 -0.0053451983 -0.017266763 -0.081455775
000360 5f b0 fd bc 7e 3d 52 bd 26 57 a2 3a af 60 46 bd
       -0.03096789 -0.051328175 0.0012385591 -0.04843205
000370 29 a2 79 bd 4f 89 32 bc 07 50 73 bd 05 5e 98 3d
       -0.060945664 -0.010896995 -0.059402492 0.07439808
000380 e1 23 4e 3d 9e 3e 01 3d d7 a5 9a 3c 12 b2 3f bd
       0.050327186 0.031553857 0.018877907 -0.04680068
000390 c7 47 73 bd 27 9e 59 bd 55 04 11 bc 54 32 d0 bc
       -0.059394624 -0.05312934 -0.0088511305 -0.025414623
0003a0 c6 23 43 bd 12 86 77 bd 1b 5d fa bc 1b fd 34 3d
       -0.047641538 -0.060430594 -0.030561974 0.044186693
0003b0 43 4c 09 3c dc 53 99 3c 2a 0d 1a 3c 76 f9 84 3a
       0.008379999 0.018716745 0.009402553 0.0010145146
0003c0 29 83 9b bd b5 60 91 bc 28 db 06 bd 52 73 97 bc
       -0.07593376 -0.017746309 -0.032923847 -0.018487606
0003d0 e6 3d f5 bc dc a2 1e bc b1 80 db 3c 67 a8 a8 bc
       -0.029936742 -0.009682383 0.026794763 -0.020588113
0003e0 b2 e1 5c bd a6 8c 19 3d e2 ef f4 3c 66 05 aa 3d
       -0.053926177 0.03748765 0.029899541 0.08301811
0003f0 ca 1b 47 3d 8d 26 9c 3b a6 4b a9 bd 47 df 25 bc
       0.048610486 0.004765338 -0.08266382 -0.010124034

emb.bias f4 [64]
000000 be 2c 89 bc b5 05 20 bc 70 55 88 3b 7f c3 1b bd
       -0.016744968 -0.009766986 0.0041605756 -0.038028236
000010 f9 ec 8a bd bd 69 db 3b 9e d9 9e bd f3 6c 83 3d
       -0.0678348 0.0066959546 -0.07756351 0.06417265
000020 a1 dd 88 bc b6 7d 25 3d 9e 47 96 bc 9c ab f0 bc
       -0.016707243 0.04040309 -0.018344697 -0.029378705
000030 4e a6 03 3d c3 b2 6d 3d 1f 24 09 bd 5b 39 a9 3d
       0.032141022 0.05803181 -0.033481713 0.08262893
000040 91 44 69 3d 77 04 8f bc 0e 06 fe 3b a4 7d 89 bd
       0.056950156 -0.017458184 0.0077521866 -0.06713417
000050 5a 4a 80 bd b2 96 90 3d 1f b0 5a 3d c7 c4 a2 3c
       -0.062641814 0.07059993 0.05339062 0.019869221
000060 3c ce da b9 9e e9 9a 3d 7a 8b a7 3c 07 d2 9e 3d
       -0.00041733857 0.0756409 0.02045225 0.07754903
000070 5c b4 32 3d cf 8f 86 3d 40 c4 be 3c 50 c9 91 3c
       0.043629035 0.06570398 0.023286939 0.017796189
000080 7a c2 91 bc 72 44 0a 3c 65 eb f1 3b 7a aa 9e bd
       -0.017792929 0.00843917 0.0073827975 -0.077473596
000090 36 09 af 3d 3e d0 2a bd e9 ca 3d bd da 46 81 bd
       0.08546679 -0.0417025 -0.04633609 -0.06312342
0000a0 35 55 ec 3b b9 8f da bc 50 97 bd 3a 87 57 b1 bc
       0.007212306 -0.02667986 0.001446465 -0.021648182
0000b0 8e ff 28 39 96 4e 87 bc d8 58 b5 3c d3 91 56 3d
       0.0001611693 -0.016516965 0.02213709 0.052385163
0000c0 a7 c3 8d 3d 0e 8e 60 bd 04 8d 2e 3d 5d 2e ca bb
       0.06922083 -0.054822974 0.04261495 -0.0061700777
0000d0 8a 11 36 3c e6 df 50 bc 66 72 6c bc 78 1d a1 3d
       0.01111258 -0.012748694 -0.014431572 0.07866949
0000e0 28 43 13 bc 7e 44 20 bd 16 c3 6b bd cb ae 34 3c
       -0.008988179 -0.03912782 -0.057559095 0.011028002
0000f0 a8 d3 f6 bc 20 40 80 3c 1f 40 0a 3b 58 1e b6 bd
       -0.030130222 0.015655577 0.0021095348 -0.08892506

pos.weight f4 [17, 64]
000000 d4 e7 09 3d 9c b9 ee 3c f2 87 df 3d 33 9b df 3d
       0.033668354 0.02914124 0.109146014 0.10918274
000010 15 ea 9d be d2 3a a6 bd 93 aa 6d 3d 48 f0 98 bc
       -0.30842653 -0.08116688 0.058024 -0.018669263
000020 8f f6 81 3c f0 57 61 bd 88 a6 64 3e 49 c8 96 3a
       0.015864639 -0.055015504 0.22329152 0.0011503781
000030 c2 40 ca be 45 5b 83 be 14 03 d9 bb 5f 10 0c 3d
       -0.3950253 -0.2565557 -0.0066226814 0.0341953
000040 2b 58 c1 be b9 96 86 bb 3b a2 2a 3d 30 f6 9f 3d
       -0.3776258 -0.004107323 0.04165862 0.078106284
000050 8e 08 28 3d 7f c3 e1 bc 85 22 bd bd f0 cf 74 be
       0.041023783 -0.02755904 -0.092351 -0.23907447
000060 34 ba ce be f0 f4 ae bd 17 d4 16 be 1b 3d 1b be
       -0.40376437 -0.08542812 -0.14729343 -0.15160029
000070 69 65 ee bc 1e f7 8f bd 4a c6 a4 be b6 d1 02 be
       -0.02910109 -0.07029556 -0.32182533 -0.12775311
000080 c9 d6 01 be 96 6c ae bd fc 85 72 bc b6 c4 ea bd
       -0.1267959 -0.08516805 -0.014802452 -0.11463301
000090 1a 70 3f 3e c3 11 ed bc e7 a7 c6 be 2d 65 62 be
       0.18695107 -0.028939134 -0.38799974 -0.22108908
0000a0 3c 55 43 3e 33 07 c4 3b d1 ad 8e 3e ce a6 3e 3d
       0.19075483 0.0059823035 0.27866986 0.046545796
0000b0 e1 08 0f be 04 a8 97 3b 3a 80 30 3d 33 dd 22 bd
       -0.13968231 0.0046281833 0.043091036 -0.039761733
0000c0 10 06 2a be d5 3b de ba c9 68 8a 3c 69 ad 19 3f
       -0.16603875 -0.0016955087 0.016895669 0.6003023
0000d0 3e 97 a9 bd bf 66 a8 3d 22 d8 a4 3d 54 30 36 3d
       -0.082808 0.08222722 0.080490366 0.044479683
0000e0 f2 15 15 be 5f 11 4b bc 43 2d 26 3d d1 22 1b 3d
       -0.14559153 -0.012394278 0.04057051 0.037875
0000f0 ce de 8c 3d 37 7e 5a be a5 ee ab 3d 14 72 14 3d
       0.06878434 -0.2133721 0.08395127 0.036241606
000100 e1 54 ac bf ac 8d 45 3c 45 dd 0c bf e4 b6 e1 be
       -1.3463403 0.012057703 -0.5502513 -0.44084847
000110 5a cb 99 bf 45 6c 02 bf 98 cc 16 3f 91 f1 61 3e
       -1.2015183 -0.50946456 0.58905935 0.22064807
000120 c9 b0 87 3a fc be e4 3e 72 ca d2 bc 73 da 07 3e
       0.0010352369 0.4467696 -0.0257313 0.13266926
000130 8b d5 2f bf f9 c4 c7 be 97 59 aa 3e de 24 c5 be
       -0.68685216 -0.39017466 0.33271477 -0.3850469
000140 78 00 1c be 41 da 83 bf ae 7f 9c be 13 5b 17 be
       -0.15234554 -1.0300981 -0.30566162 -0.14780836
000150 ed bf cc 3e 03 0f 93 bb c3 f0 08 3f ea 77 f9 bd
       0.39990178 -0.0044878735 0.53492373 -0.12181075
000160 6a b3 68 bf c1 3f 37 3e 17 8b 45 bf 34 e2 22 bf
       -0.90898764 0.17895414 -0.7716536 -0.6362641
000170 e6 72 0c 3f 81 87 58 3f 44 2f 4b 3f 07 56 35 3e
       0.5486282 0.8458176 0.79368997 0.17708598
000180 21 13 20 bf fc eb 44 be d2 28 08 bf a8 ae 3d 3d
       -0.6252919 -0.19230646 -0.53187287 0.046309143
000190 50 6b 14 bf 65 79 6d 3f 82 3d 00 3e 14 cd 16 3e
       -0.57976246 0.9276336 0.12523463 0.14726669
0001a0 a1 34 f5 be db b3 46 3f fe e1 28 bf db 10 a1 3e
       -0.47891715 0.7761819 -0.65969837 0.31458172
0001b0 fe 41 0d be 45 5f aa 3e 76 a0 32 be 22 83 7e 3e
       -0.13794705 0.3327581 -0.17444023 0.2485471
0001c0 ac d0 fd bb 85 43 5f be bb 55 cf be c8 ab 89 bf
       -0.007745823 -0.218031 -0.40495095 -1.0755548
0001d0 45 84 64 3e 17 95 22 3e 81 97 47 be 41 5a 0d be
       0.22316082 0.15877186 -0.19491388 -0.1380396
0001e0 67 9d bb bd 37 0b 80 3e fe 92 d7 3e 3a f9 fc be
       -0.091608815 0.25008556 0.42104334 -0.49408895
0001f0 cf 73 e5 be 00 d4 eb 3e f3 bb bb 3d 38 61 32 bf
       -0.44814917 0.4606018 0.09166708 -0.69679594
000200 1b 48 06 be 43 72 9c 3e fd 3a 9d bf 39 b9 a5 3e
       -0.13113444 0.30555925 -1.2283627 0.32367876
000210 68 ea f6 bd 23 38 b7 3e 11 df 00 bf e9 5f 25 3f
       -0.12056428 0.35785016 -0.5034037 0.6459947
000220 b2 87 65 3e 72 60 60 3e d2 0a ef 3d 90 e1 57 bf
       0.22415045 0.21911791 0.11671986 -0.84328556
000230 57 22 6e 3e e1 1e 60 3c 8b bb ff bd 01 eb aa be
       0.23255287 0.013679237 -0.12486943 -0.3338242
000240 1e 3c 2e bc c4 e5 1d bf de c1 2b bf 32 4b 5f 3e
       -0.01063445 -0.6167872 -0.6709269 0.21806028
000250 c7 f4 71 3e 11 0b 31 be f2 20 b3 3c c6 3a 0f 3e
       0.23628531 -0.17289378 0.021866295 0.13987264
000260 80 fc f0 3d cf 84 60 bc 06 ee 15 3f 07 b2 06 3f
       0.117669106 -0.013703539 0.5856632 0.526154
000270 58 6a d6 bc 5e 54 60 be 70 1d 89 be b4 81 4d bf
       -0.026173756 -0.21907184 -0.26780272 -0.80276036
000280 00 f6 4b 3f c0 ec 14 3e 47 e8 75 3e f0 d0 66 3e
       0.7967224 0.14543438 0.24014388 0.22540641
000290 e4 6d a0 3d bc 78 4c 3e 8e 8c 75 3e 6f ee b7 3e
       0.0783346 0.19967932 0.23979399 0.35924098
0002a0 08 03 bf 3d 7a f6 15 3f 62 25 4b 3e 17 eb 91 3e
       0.0932675 0.5857922 0.19838479 0.28499672
0002b0 c9 21 18 bd c2 02 22 3e 92 b7 92 3e c2 b8 a3 3f
       -0.037141595 0.15821365 0.28655678 1.2790759
0002c0 b4 05 5e be 8c 7d 30 3e 2d 56 f4 bc 81 e2 b9 be
       -0.21681863 0.17235392 -0.029826248 -0.3630562
0002d0 41 7a 60 be a1 08 69 3e 14 b1 ba 3e ad d3 60 bf
       -0.21921636 0.22757198 0.36463225 -0.8782299
0002e0 d0 e9 35 bf 92 41 fe 3e ae c4 65 3e bf 38 67 3f
       -0.71059895 0.496594 0.22438309 0.9032096
0002f0 6a a3 e2 be e0 86 57 3e 52 4f 21 bd ed 9f 98 be
       -0.442653 0.21047544 -0.039382286 -0.29809514
000300 29 2d 4e bf ef a0 ca 3e 32 db 11 bf 88 8e 50 be
       -0.8053766 0.39575908 -0.5697509 -0.20366871
000310 60 e6 06 be 73 7a 0d 3e 16 55 88 bf ff cd 8d 3d
       -0.13173819 0.13816242 -1.0650966 0.06924056
000320 e1 ae 16 3d 7c 9b 2f be 5b 9e 3c 3f 01 32 83 3e
       0.03678787 -0.17149156 0.7367913 0.25624087
000330 18 db 89 3e ae 56 a2 be ee 4b 95 be 24 a8 0d 3f
       0.26924968 -0.31706756 -0.29159492 0.5533469
000340 6f d9 4d bf 98 ad d3 3e 21 a2 d0 3e 3a a5 b9 3e
       -0.804099 0.4134338 0.40748695 0.3625887
000350 64 50 f6 3d b7 eb bd bd 3a 66 a7 3e 51 5b 72 be
       0.12027052 -0.09273475 0.3269518 -0.23667647
000360 a2 93 28 3f 09 14 e5 be 17 a7 b0 3c 8f b0 f3 be
       0.6585027 -0.44741848 0.02156405 -0.4759564
000370 87 bd 9d 3c 45 b4 84 3e a0 27 bd bd 68 f5 52 3f
       0.019255413 0.25918785 -0.092360735 0.8240571
000380 d3 6a f6 3d cd 89 0f bf cc d1 4e 3e b0 35 24 3e
       0.12032094 -0.5606964 0.20197219 0.16036105
000390 39 b7 86 3e 88 98 cb 3c 6b 61 28 3e 32 b2 52 3e
       0.26311663 0.024853006 0.16443412 0.20575789
0003a0 c6 8d 8f 3e d4 d1 fe 3e 53 0a b4 3c e9 c9 ee be
       0.28037852 0.4976946 0.02197758 -0.4663842
0003b0 fb cf 8c 3e 10 ef 3d bf 37 22 b1 bd 42 a5 2d bd
       0.27502427 -0.74192905 -0.08649104 -0.04239393
0003c0 17 42 0a 3f b5 d9 11 3f db b9 34 bf 46 a0 68 3f
       0.54007095 0.5697282 -0.7059609 0.9086956
0003d0 d5 65 e9 3e 1e 21 4b bd 23 20 5b bf de 5b 96 be
       0.45585504 -0.04959213 -0.8559591 -0.29366964
0003e0 64 22 71 be f1 0c 82 be 83 cf 6a bf a9 d0 21 3f
       -0.23548275 -0.25400499 -0.9172289 0.63209015
0003f0 f8 7c 5b be 77 ca 08 bf 7a 15 11 bf 4d 04 82 be
       -0.2143439 -0.53433937 -0.56673396 -0.25393906

enc.0.att.q_proj.weight f4 [64, 64]
000000 cd 5c 77 3b 07 92 9e 3c 55 3a 02 ba 0d fc 10 3c
       0.0037744523 0.01935674 -0.00049677986 0.008849156
000010 fb 93 07 3c cc a6 2e ba 46 3f a3 bc d3 ea 1b 3c
       0.008275027 -0.0006662428 -0.019927632 0.009516436
000020 88 cf 39 3c 89 61 0b bc cf d4 34 3c f3 07 46 ba
       0.011340983 -0.008507141 0.011037066 -0.0007554285
000030 bd 89 69 bb eb 67 7d bc bc f6 a3 bc 6b c4 7a 3b
       -0.0035635077 -0.0154666705 -0.020015113 0.0038264047
000040 05 0a 50 3b 4a a0 e8 3c 74 99 00 bc 1d e2 24 3c
       0.0031744253 0.028396744 -0.007849086 0.010063675
000050 61 5d ac 3c 16 d9 cd bc b9 cc e4 3b d6 7c 9e bc
       0.02104062 -0.025127929 0.0069824127 -0.019346636
000060 99 08 24 bc 2b c8 b3 3b b0 2a 9c ba 85 f2 b4 ba
       -0.0100118155 0.0054865084 -0.0011914577 -0.0013805187
000070 13 c4 79 3c 5a 09 87 bc 76 2b 21 3b 11 d2 7e 3b
       0.015244502 -0.016483951 0.0024592555 0.0038882534
000080 71 ce 03 bb 6e a9 fa bb e7 4b 8a 3b 87 23 09 ba
       -0.0020112062 -0.007649592 0.004220474 -0.0005231429
000090 82 d3 4e bb 8c 56 4d 3c fc 69 04 3c 11 bc 93 3c
       -0.0031559174 0.012532841 0.008081909 0.018034013
0000a0 fd d0 50 3c a0 eb b4 bc d3 0b 27 bc 8e a1 4d ba
       0.012745139 -0.022085011 -0.01019569 -0.0007844203
0000b0 1e 01 e2 3b c4 cb 45 3d 28 13 48 3b 84 61 74 bc
       0.006897106 0.04829003 0.0030528996 -0.014915828
0000c0 bf 5e 30 bd 11 51 a4 bb 78 81 6c bc db 35 d9 3c
       -0.043059107 -0.0050145467 -0.014435165 0.026514938
0000d0 70 93 93 3c 69 4f 91 3c ea cb 0e bc db 4b bf bb
       0.01801464 0.017738061 -0.008715609 -0.0058379
0000e0 85 3f 86 3b fe 56 bc bb 40 06 bc 3b 95 c7 d8 ba
       0.0040969276 -0.005747675 0.0057380497 -0.0016538972
0000f0 46 85 be bb 75 56 ab 3b c6 e4 8c 3b 78 9c 72 3c
       -0.0058142273 0.0052288123 0.004299733 0.014807813
000100 bc db 81 3a 77 b7 47 bb cf ab 02 bc 4d 63 9a bb
       0.0009907405 -0.0030474344 -0.007975533 -0.0047115446
000110 bf be 95 bb 48 d3 02 bc 6c ec 80 3b 35 4d 50 ba
       -0.004569858 -0.007984944 0.0039344337 -0.0007946075
000120 63 f6 ee 3a 01 b2 c5 3b 0e 1a c8 b9 59 cb ec bb
       0.0018231388 0.0060331826 -0.00038166385 -0.0072263894
000130 ac ba a8 3b 62 77 75 3b 75 73 52 3c 12 8a b9 bb
       0.005149206 0.003745519 0.01284491 -0.005662211
000140 1a 6e 11 3b 7b 41 54 bb 1f f7 b0 3a 65 35 42 bc
       0.002219087 -0.0032387662 0.0013501382 -0.011853551
000150 a0 ef 8c bb 23 34 f0 3b 4d 89 dd bb 4b cc 8a 3b
       -0.0043010265 0.007330434 -0.0067607523 0.0042357794
000160 85 cd 57 3b 36 13 fa bb d3 b2 48 bb 5f 49 6b bb
       0.0032928896 -0.0076316847 -0.0030624166 -0.0035901887
000170 c7 27 13 bc 28 36 52 3b 1c 21 98 36 83 72 89 bb
       -0.008981652 0.0032075737 4.5338074e-06 -0.004194559
000180 03 62 22 39 f5 e5 5b 3b 18 82 3d bc a4 7c 11 bb
       0.00015486036 0.0033553813 -0.011566661 -0.0022199536
000190 04 58 af bb fc 3b 3a bb 48 c6 76 bb 2a 24 a2 bb
       -0.0053510685 -0.00284171 -0.0037654806 -0.0049481587
0001a0 fd 58 e4 ba 28 4f de 3a 04 18 b7 3b 5d cc 0f ba
       -0.001742154 0.0016960846 0.0055875797 -0.00054854696
0001b0 8b bc 49 39 33 b2 80 bc 81 f1 24 3c 52 88 20 3b
       0.00019239091 -0.015709972 0.010067345 0.0024495316
0001c0 64 12 f4 3b 1d 34 f0 3b 46 b2 57 bc fa 99 25 bb
       0.0074484814 0.007330431 -0.013165062 -0.002526878
0001d0 c4 23 17 bb 7e bf 9c bb 8f 18 1c bc 0b 19 23 3c
       -0.002306209 -0.00478357 -0.00952734 0.009954701
0001e0 d0 f3 87 3b 77 d5 a9 3a e4 32 20 bb 04 6e 15 3c
       0.0041489378 0.0012957294 -0.0024444396 0.009120468
0001f0 18 b6 7c bb c2 20 90 ba 39 6c a1 bb f3 b3 42 3b
       -0.0038560685 -0.0010996091 -0.004926231 0.002970931
000200 a2 b6 26 3c 82 90 b9 3b 87 09 49 bc 0b b6 86 3a
       0.010175379 0.0056629786 -0.012270338 0.0010277642
000210 f7 dd 1f 3b 7c 42 7f bc b5 f9 8d bb 9d 54 1f 3b
       0.0024393776 -0.015579816 -0.004332746 0.0024311908
000220 30 a0 89 3c 0e 2e e2 3b f1 4d a6 3b b7 05 68 bc
       0.016800016 0.006902463 0.0050752093 -0.014161519
000230 03 76 8c 3b 9a 5b 3a bc 5c a5 c8 3b 3b dd ed bb
       0.004286529 -0.011374379 0.006123228 -0.0072590387
000240 84 dc 4b 3c f9 9e aa 3c cb fc df 39 b2 cd 7a bc
       0.012442712 0.020827757 0.0004272222 -0.015307831
000250 7b c4 c7 3b 13 f7 24 bc 0d b8 17 bc 9c 56 bc bb
       0.0060964203 -0.010068673 -0.00926019 -0.0057476293
000260 74 a4 ee b9 86 ca 53 bc 66 d2 f5 ba 4b 47 17 bc
       -0.00045517425 -0.012926703 -0.001875472 -0.009233306
000270 4a 34 04 bc f5 4e 61 bc f2 e3 bb 3b 32 b1 bd bb
       -0.008069107 -0.013751735 0.0057339603 -0.0057889456
000280 b9 e8 b4 bb c8 72 b0 ba 1d af b1 bc a4 8a 31 bb
       -0.0055209068 -0.0013461942 -0.021689946 -0.0027090693
000290 40 87 5b bc 52 80 d6 3a 11 0e a8 bb f6 af dc 3b
       -0.013398945 0.0016365147 -0.00512863 0.0067348434
0002a0 e6 90 8b 3b d8 b1 56 bc ca f7 9e 3b a6 6e 04 bb
       0.0042592166 -0.013103925 0.004851316 -0.0020207553
0002b0 69 a6 02 3c 8d a5 20 3b f9 13 a4 3c b0 13 03 bc
       0.007974246 0.0024512738 0.020029055 -0.008000299
0002c0 5f a4 88 bc fd b4 a1 3b d6 e6 f3 bc b4 12 a4 3c
       -0.01667994 0.0049349056 -0.029773157 0.02002845
0002d0 ff a0 70 3c 5b 37 1b 3c 3c 52 be bc fe fe 8d 3c
       0.014686822 0.009473647 -0.023232572 0.017333504
0002e0 ef 4e 12 3c 53 96 45 39 27 f9 31 ba 0c b1 7b 3c
       0.008929952 0.00018843384 -0.0006789141 0.0153620355
0002f0 af 68 1a bc 36 de b0 ba 89 31 db ba 1a 3d ac 3c
       -0.009424373 -0.0013493958 -0.0016723137 0.02102523
000300 cf 4f e0 39 0d 45 15 3b 94 81 df 3b 8f 68 9f 3b
       0.0004278407 0.0022776753 0.006820867 0.0048647593
000310 09 cd 8b 3b 5f 46 e7 3b 65 c0 80 bb c6 95 15 b9
       0.0042663855 0.0070579494 -0.003929185 -0.00014265542
000320 2c 0d 21 bb f2 27 b5 bb 10 ed 6a b9 f8 10 d4 3b
       -0.0024574501 -0.0055284435 -0.00022404292 0.0064717494
000330 35 69 9f bb 3d 8c c7 bb 85 d3 3a bc b1 5f ac 3b
       -0.0048648366 -0.0060897158 -0.011402969 0.0052604307
000340 1c d5 d7 ba 6c d5 93 3b 12 35 9c b9 59 0a 20 3c
       -0.001646671 0.004511526 -0.0002979418 0.009768092
000350 ce b0 bc 3b a9 00 df bb 00 27 cb 3b c1 25 61 bb
       0.0057583814 -0.0068054986 0.0061997175 -0.0034354778
000360 cc d6 50 bb 4a 0b cf 3b 3b ac 99 3b 8d 71 4f 3b
       -0.003186631 0.0063184844 0.004689721 0.0031653375
000370 c5 7b f3 3b 10 4a 85 bb e5 f8 1a ba f4 b5 35 3b
       0.007430526 -0.004067667 -0.0005911722 0.002772686
000380 85 ef 4d ba 8e 18 59 bb a6 68 0c 3c 41 12 0b 3b
       -0.00078558206 -0.0033126208 0.008569872 0.0021220597
000390 49 f0 80 3b 90 1c 4d 3b b7 0c 53 3b 6e 54 bf 3b
       0.003934894 0.0031297542 0.0032203624 0.005838922
0003a0 1e 2b c8 3a 70 48 12 bb 8f bf 8e bb bd 76 e4 b8
       0.0015271639 -0.0022321008 -0.0043563317 -0.00010894004
0003b0 0b 36 a5 39 f7 6a 45 3c e5 d5 47 bc e3 d7 58 bb
       0.00031511518 0.012049428 -0.0121969925 -0.0033087663
0003c0 4c 0c c4 bb e9 5f da bb f0 4b 38 3c 42 cf 72 3b
       -0.005982911 -0.0066642654 0.011248574 0.0037049805
0003d0 ef dd 84 3b cc d0 cc 3b f3 14 de 3b ac 73 1c bc
       0.004054777 0.0062504765 0.0067773997 -0.009549063
0003e0 2d 6b 80 bb 4c 4c 3b ba 80 95 3f 39 77 f3 ef bb
       -0.0039190263 -0.0007144853 0.00018270873 -0.0073227244
0003f0 77 61 69 3b b0 4b b0 39 da 2e 86 3b 25 c7 08 ba
       0.0035611072 0.00033625728 0.0040949406 -0.0005217663

enc.0.att.q_proj.bias f4 [64]
000000 d7 cf ca 39 2f 13 bc 3a e4 3d 09 3b 2d f1 50 bb
       0.00038683295 0.0014348979 0.002094143 -0.0031882033
000010 ba 18 7a 3a 04 48 15 bb b5 f9 23 3b b0 19 d2 bb
       0.0009540428 -0.002277852 0.0025020663 -0.0064117536
000020 ef 0e 5e 3b f2 d1 4a 3c 64 83 01 3b b0 28 d9 3c
       0.0033883413 0.012379156 0.0019762153 0.02650866
000030 72 e0 af ba 55 e0 b5 bb e2 03 ca 3b 0f 25 1e bb
       -0.001341833 -0.005550424 0.0061650136 -0.0024130975
000040 db d6 6e bc 0c 8b ea bc 65 a7 44 bc 96 42 a7 3b
       -0.014577593 -0.028630756 -0.012002801 0.005104373
000050 f6 6e e2 bb c6 45 33 3c 94 6a 92 bc 56 86 d5 3c
       -0.0069102 0.010941928 -0.017873086 0.026065033
000060 fa a6 8d 3c 66 47 cc 3b 43 6f be ba 44 2a c5 bc
       0.017291535 0.0062340973 -0.0014529008 -0.024068005
000070 2c dd 0b bb 0f d7 18 bc 40 4a 15 bc df e6 02 3d
       -0.0021341546 -0.009328618 -0.009111941 0.031958457
000080 cf 02 e5 bb 94 1b 9c 3b 91 d6 dc bc cb f2 12 bd
       -0.00698886 0.0047640298 -0.026957782 -0.035876077
000090 15 06 bc 3c bf 83 6e bb 0e 6b 43 bd 2c 42 3b 3d
       0.022952119 -0.0036394445 -0.047709517 0.045717403
0000a0 67 96 48 bc d1 3b 12 3c 12 c1 0b 3c 90 b3 92 3c
       -0.01224289 0.008925394 0.008529918 0.017907888
0000b0 5e 5f a6 3c 84 4b b4 bc 62 4c 69 3b 19 0b 44 3d
       0.020309146 -0.022008665 0.0035598506 0.047862146
0000c0 60 d5 7b bd d8 26 64 bd 24 09 e7 3c 95 51 93 bd
       -0.061482787 -0.055701107 0.0282026 -0.07193295
0000d0 69 ab 17 3c 98 29 fd bd 88 c9 06 3d 50 45 23 3e
       0.009257176 -0.12361449 0.03290704 0.1594441
0000e0 26 71 d1 bc 72 ed c3 bc 41 25 39 3d 8d e7 10 3e
       -0.025566649 -0.023916934 0.045201544 0.1415083
0000f0 2b 13 03 3e a7 20 4d 3a 4f 78 b0 3c ef e2 e8 ba
       0.12800281 0.0007824995 0.021541743 -0.0017767827

enc.0.att.k_proj.weight f4 [64, 64]
000000 ee f7 72 3b e8 14 b6 bb e1 35 97 bb bb 89 4d bb
       0.0037074047 -0.0055566914 -0.004614577 -0.0031362611
000010 46 0d 26 bb 80 83 8c bb d9 c7 d0 bb ee 20 fe ba
       -0.0025337501 -0.004288137 -0.00637148 -0.0019388476
000020 13 b7 9c bb 12 0c ea 39 ee 60 9d bb 4d 0f 1e bc
       -0.0047825663 0.0004464095 -0.0048028147 -0.009647203
000030 88 a6 9e bb b9 b5 6e bc 2b b4 27 bc 4f 89 91 3b
       -0.0048416294 -0.014569693 -0.0102358265 0.0044414173
000040 e6 3a 8e 3a 2c 05 fa 3c c2 7a f6 38 e1 ce 17 3c
       0.0010851293 0.030520044 0.000117530595 0.009265632
000050 27 05 e8 3c 8d 6b 9f bc 8b 00 29 3c bd 80 b3 3a
       0.02832277 -0.019460464 0.010315071 0.0013694983
000060 d3 cd c3 bb 67 b5 03 3d 25 ab de bb 82 04 00 3b
       -0.005975464 0.03215542 -0.0067953044 0.0019533937
000070 c2 13 a6 3c fb 77 0a bc 00 42 86 3b aa 87 a9 3b
       0.020273093 -0.008451457 0.0040972233 0.005173643
000080 ba 4e df bb 1e ff e9 bb 1c 64 27 3c 78 b7 f2 3a
       -0.006814805 -0.007141008 0.010216739 0.0018517813
000090 b9 2d fe 3b c3 5e 88 bc 6c b3 65 bb a1 d2 88 3c
       0.0077569154 -0.016646748 -0.003504957 0.016701998
0000a0 f0 93 1a bc 4b e3 bf ba 76 13 76 bc 95 dc 57 bc
       -0.009434685 -0.0014639882 -0.015019288 -0.013175149
0000b0 c6 b6 4d 38 c7 b4 b3 3c 95 8a e8 bc d0 c8 2c bc
       4.904603e-05 0.021936787 -0.028386394 -0.010545924
0000c0 9d b6 1c 3c 5f a4 8e bc c7 84 92 bb 41 2f 85 3c
       0.009565023 -0.017412363 -0.0044713947 0.016257884
0000d0 ee 38 c1 3c 87 d3 67 3b 6e 51 1d bb e6 d7 2c bb
       0.023586717 0.0035373883 -0.0024004835 -0.0026373803
0000e0 1a ae 79 bc 4b 3b 96 3a 10 4f c4 3b ad ea 59 bb
       -0.015239263 0.0011461762 0.0059908703 -0.003325145
0000f0 a9 52 a0 ba 8a a5 1a bb 38 ad 1c 3b bd a5 12 3c
       -0.0012231666 -0.0023597204 0.0023906957 0.008950648
000100 fb 6c 07 bc 1b 37 98 3b 4c ac 61 3b 3d eb 9c 3b
       -0.008265729 0.004645241 0.0034434972 0.004788785
000110 5d 8c 29 3b 84 e5 87 bb fe 3d 33 3c 68 44 57 bb
       0.0025871017 -0.0041472334 0.010940073 -0.003284717
000120 cb 80 00 3b ef db 90 3b 90 15 66 3b d7 26 0c ba
       0.0019608017 0.0044207494 0.0035108067 -0.0005346364
000130 ff d8 84 3a 86 0e 3a ba 0d 1d ac 3a 0e 94 8b 3b
       0.0010135471 -0.0007097501 0.0013131216 0.004259593
000140 66 29 68 3a 91 53 86 bb c5 64 23 b7 5b 84 a9 bb
       0.00088562665 -0.0040993174 -9.739019e-06 -0.0051732487
000150 54 90 8e bb 4a 90 25 3c db 1d f6 bb ee 7c f4 39
       -0.0043507013 0.010105202 -0.0075108833 0.00046632387
000160 3c 38 58 3c 34 b2 73 bb ab 1c 6c 3b f4 8f 64 3b
       0.013197001 -0.0037185075 0.003602783 0.0034875842
000170 39 b3 ce bb 59 4c 9a 3b 48 c7 e1 bb 3d b4 1d bb
       -0.006307986 0.0047088084 -0.0068902113 -0.002406373
000180 66 cc c4 bb 13 be c0 3a 41 b9 39 bc bd 62 13 3b
       -0.0060058115 0.0014705084 -0.011335672 0.0022489273
000190 f5 5f 3f bb 7f 15 80 3b e5 2e 64 ba 2a fe 90 bc
       -0.0029201482 0.0039088125 -0.00087044976 -0.01769932
0001a0 be d9 e8 39 50 5e ae 3b 0b 1c 31 3b a8 97 04 3c
       0.0004441272 0.0053213015 0.0027024772 0.008092798
0001b0 d7 bc 72 3b 80 1f 81 bc 43 12 88 ba ed 21 8a 3b
       0.0037038827 -0.01576209 -0.0010381419 0.00421547
0001c0 12 82 45 3c c2 11 05 3c d8 eb a7 bb bb a0 bd bb
       0.012054937 0.00812191 -0.0051245503 -0.005786983
0001d0 b2 f1 0f bc fa 6c 74 3a 1d 97 e7 bb 6a f6 b0 3b
       -0.008785652 0.00093241 -0.0070675747 0.0054004686
0001e0 c2 7d 5a 3b 69 0e 07 3b c7 ff 40 39 04 8a 34 bb
       0.0033339118 0.0020607954 0.00018405831 -0.0027548084
0001f0 2d 58 12 3b 2f 88 88 3a 31 bb 3d 3b 38 d5 02 bc
       0.002233039 0.0010416562 0.0028950686 -0.007985406
000200 7f bb 33 bc a8 76 3d 3b 1b c3 0b 3c 74 d0 18 3c
       -0.0109699955 0.0028909836 0.0085304035 0.009327043
000210 d9 20 00 3b 08 1e 43 bc 82 ba 83 3c 13 aa f8 bb
       0.0019550829 -0.0119090155 0.016080145 -0.007588634
000220 12 2e b2 39 2c 62 12 3c d1 ed 4f 3b 2a 71 14 bc
       0.0003398513 0.008934539 0.0031727443 -0.009060184
000230 9c 1c 9d bb bf 57 80 bc 4c bc 7c bb 43 c2 41 3c
       -0.0047946703 -0.01566684 -0.0038564382 0.011826101
000240 4e a4 d4 3a 15 e4 72 3c e4 aa bb b8 86 63 5d bb
       0.0016223283 0.014824887 -8.948686e-05 -0.0033781244
000250 3f 1c 7c 3c 68 01 15 3b 54 35 b9 bb a7 b4 d7 3a
       0.015387594 0.0022736434 -0.005652109 0.0016457037
000260 fe ee 9f 3c 21 04 a4 3c 23 b5 b0 3b 7b dd 11 3c
       0.01952314 0.0200215 0.005392687 0.008902903
000270 3c 1e e3 3b d1 f8 16 bb 44 a8 51 bc ba 7d ba b8
       0.0069310945 -0.002303649 -0.012796465 -8.8925895e-05
000280 bd 34 b0 bc 6a 28 2e bb 90 3a 42 bc 7e bc d8 3b
       -0.021509523 -0.0026574382 -0.011854783 0.006614267
000290 fc 69 b0 ba 3c c0 5a bb 3a dc c9 bb a9 4b 80 bc
       -0.001345932 -0.003337874 -0.0061602863 -0.015661078
0002a0 d7 67 ff bb be c4 c4 3b 5c 51 e6 bb 8f bb b5 3b
       -0.007794361 0.006004899 -0.0070287418 0.0055460404
0002b0 ce e4 40 3c 71 f3 0d bc 24 66 dd bc c3 3d 87 bb
       0.011773301 -0.008663998 -0.027026244 -0.0041272356
0002c0 ec 87 11 3d c3 a2 ed b9 02 34 84 bc 91 97 af 3b
       0.035530016 -0.0004532543 -0.01613808 0.0053586443
0002d0 81 0b fb 3b 07 61 f2 3b 04 56 95 bc 14 12 30 3c
       0.0076612835 0.0073968205 -0.018229492 0.010746498
0002e0 bd 8b 09 bc f7 b9 ad 3b b4 e6 7f 3b 0b 10 70 bc
       -0.008395133 0.0053017098 0.0039047422 -0.014652262
0002f0 04 7c 4b 3b 0b bb 2d 3a 0e ae e8 3b 0f cb 7e bb
       0.003104926 0.0006627298 0.007100827 -0.0038878357
000300 d9 72 01 3c 20 c4 ab bb 01 de 85 bb c3 4a 78 bb
       0.007900917 -0.005241886 -0.004085303 -0.0037886358
000310 18 db 27 bb ae c9 47 3b 37 33 2b bc a8 41 9d 3b
       -0.0025612768 0.00304852 -0.010449222 0.0047990866
000320 d8 c8 f2 ba b1 c8 8a bb 5b d4 47 bb 80 46 25 3a
       -0.0018522991 -0.00423535 -0.0030491564 0.0006304756
000330 d3 0b 3b ba ed 14 f0 ba fa c2 c7 ba c7 a8 81 bb
       -0.0007135246 -0.0018316783 -0.0015240603 -0.0039568874
000340 3b cc 6c ba 53 3f 3b 3b c8 10 3e 38 a7 77 7a 3b
       -0.0009033118 0.002857168 4.531516e-05 0.003821829
000350 52 ce c6 3b be ea 17 bc 36 98 d8 3b a5 30 3d ba
       0.0060670758 -0.0092722755 0.006609942 -0.00072170264
000360 92 2f 3b bc d1 17 60 3b 26 8c 01 bb bc 45 43 bb
       -0.011424916 0.0034193883 -0.0019767373 -0.0029796204
000370 75 f9 e5 3b 8c fd bf bb 8a b6 97 3b 6b 8d fd 3a
       0.007018263 -0.0058590826 0.0046299146 0.0019344514
000380 a8 02 96 3b 3f 3e 98 ba 20 56 22 3c b2 43 e8 ba
       0.0045779534 -0.001161523 0.009908229 -0.001772037
000390 4b 6b b9 3a 46 b7 17 bb 6f b5 c6 3a 1b c4 6c 3c
       0.0014146356 -0.002315001 0.0015160273 0.014451052
0003a0 b2 1f b7 b9 f3 b9 a9 bb 65 9d 1e bb 05 44 f4 bb
       -0.00034928095 -0.0051796376 -0.0024202701 -0.0074543976
0003b0 6c 3d fe ba cf 47 36 3c bb ba f8 ba 3a 75 9a bb
       -0.0019396967 0.011125519 -0.0018976548 -0.0047136815
0003c0 fa ef 20 bc b7 7e d4 bb 1f 25 5b 3b 7e 15 b3 3b
       -0.00982284 -0.006484832 0.0033438874 0.0054652086
0003d0 a5 8f 2b 3c 1c fa 3d 3a f9 ea d4 3b a0 26 cc bb
       0.010471259 0.0007247047 0.0064977375 -0.0062301904
0003e0 bf 4d 67 bb da d9 db ba dc af 1c bb 40 6b 1a 3b
       -0.0035294143 -0.0016773299 -0.0023908531 0.002356246
0003f0 0e 26 1f bb 08 e9 85 ba 8c d9 1f bb 8b ec 00 3c
       -0.0024284157 -0.0010216543 -0.0024391143 0.007868896

enc.0.att.k_proj.bias f4 [64]
000000 ed e1 db 31 cd 25 ed b1 58 ad 3e b2 9b 59 ce 31
       6.3994237e-09 -6.9019053e-09 -1.1098869e-08 6.005576e-09
000010 8e c8 27 31 da 12 1a 2f 32 09 49 b2 f8 45 2f b2
       2.44157e-09 1.4012916e-10 -1.1701831e-08 -1.020225e-08
000020 0b d3 79 b1 3d 5e d3 b2 9c 4a d4 2f 4e 7a 9b b2
       -3.6354233e-09 -2.4606488e-08 3.8615589e-10 -1.8099993e-08
000030 a9 37 2d 31 7f c7 9e 31 26 2e 99 32 e9 f7 28 b2
       2.5206452e-09 4.6210853e-09 1.783253e-08 -9.835255e-09
000040 57 ee 80 32 57 4f 1f b2 c2 e3 32 b0 36 30 01 b2
       1.5009546e-08 -9.273058e-09 -6.5079686e-10 -7.51975e-09
000050 c8 1b c7 30 a6 80 82 30 bf 0c a1 31 d4 61 99 b2
       1.4487052e-09 9.495309e-10 4.6871658e-09 -1.7856031e-08
000060 a0 fc 05 b2 84 60 4e b1 50 6a 49 31 42 bf 68 32
       -7.799059e-09 -3.0031808e-09 2.9309781e-09 1.3547664e-08
000070 4b 27 74 b0 12 10 47 b1 e5 6b a6 b0 df 11 28 b2
       -8.882252e-10 -2.8967446e-09 -1.2108755e-09 -9.7829504e-09
000080 e7 01 a0 32 31 a3 79 33 6c ed 69 33 61 73 04 32
       1.8627317e-08 5.8123252e-08 5.4465474e-08 7.709645e-09
000090 f0 05 f1 33 9d 69 41 b3 20 53 b7 32 9f 8d a9 32
       1.1223517e-07 -4.503237e-08 2.1341805e-08 1.9738591e-08
0000a0 b3 33 49 b3 6f 31 09 32 8a 30 95 33 fd 80 43 33
       -4.684598e-08 7.985689e-09 6.9471824e-08 4.551929e-08
0000b0 66 24 6f 33 3d 2a 15 b2 a8 2f 95 b3 11 4d 80 33
       5.5679628e-08 -8.682545e-09 -6.947022e-08 5.974483e-08
0000c0 b7 e3 df b4 a5 e2 96 33 83 06 80 34 d2 cd 95 33
       -4.170267e-07 7.026146e-08 2.3846596e-07 6.975792e-08
0000d0 05 a8 00 32 75 c0 8b b3 df 01 17 33 af c3 40 b5
       7.488784e-09 -6.5076996e-08 3.515913e-08 -7.181033e-07
0000e0 c7 2e 57 33 a6 7c 53 32 57 4f 03 b2 20 d6 62 b4
       5.0101132e-08 1.2310158e-08 -7.643243e-09 -2.1125788e-07
0000f0 62 5b 3c b4 89 06 42 b5 0e 48 06 b5 67 63 03 b3
       -1.7542109e-07 -7.228014e-07 -5.0023743e-07 -3.059122e-08

enc.0.att.v_proj.weight f4 [64, 64]
000000 1d 22 0f bd a3 cf 37 bc fe d2 c8 bc 78 77 f6 bc
       -0.034944642 -0.011218938 -0.024514671 -0.030086264
000010 55 82 43 3c 5d b1 cf bc f5 f9 58 bb 40 35 17 bd
       0.011932929 -0.025353128 -0.003310797 -0.036916018
000020 4e 80 79 bc 51 16 f8 bc 23 c0 06 3c db 57 7d 3c
       -0.015228344 -0.030284079 0.00822452 0.015462841
000030 d9 66 e0 bc ed 00 9f 3b b8 9a 0e 3d 65 e6 b8 3c
       -0.027392792 0.0048524053 0.03481552 0.022570798
000040 a0 7e f2 bc 8a 94 67 bd 63 3e d5 3c 7a b7 b9 bc
       -0.029601395 -0.056538142 0.026030725 -0.022670496
000050 77 79 d8 3c 5a 0b 19 3d d2 dc 5f bc 4a 5e 2e bd
       0.026425106 0.03736434 -0.0136634875 -0.04257039
000060 8e 68 73 ba f7 38 60 3c 66 c6 07 bd 63 2a 8e 3c
       -0.0009285294 0.0136854565 -0.033148192 0.017354196
000070 4e f5 0a 3d 86 cb c4 bb 43 0f 0d 3c 7d d4 07 ba
       0.033925347 -0.006005707 0.008609596 -0.00051815045
000080 ea 3e bd 3a 2c a8 cc bc 05 a9 11 3d 9f c3 14 3c
       0.0014438306 -0.024982534 0.03556158 0.009079843
000090 c8 4e 02 3d 96 84 c9 3b 30 02 4d 3c 42 a9 22 3d
       0.031813413 0.0061498387 0.012512729 0.039712198
0000a0 ee cf c6 bc 14 e2 90 bc 7a 7c f9 3c 1d e3 0c bb
       -0.02426907 -0.017685927 0.030454863 -0.0021497675
0000b0 66 8b 37 bc ca 21 23 3d f0 c6 00 bd 10 67 f0 bc
       -0.011202669 0.039827146 -0.03143972 -0.029346019
0000c0 8c 4c e7 bc 1c a1 cd ba d8 22 1c bd db 8c dd 3c
       -0.028234743 -0.0015688273 -0.038119167 0.027044704
0000d0 65 a4 93 3c 8d e5 4e 3d 20 78 54 3c 16 d9 30 bd
       0.018022725 0.050511885 0.012968093 -0.04317578
0000e0 26 cc 2a 3c bc bc 13 bc 1d 21 09 bd 0a f6 3a bb
       0.010424649 -0.009017166 -0.033478845 -0.0028527998
0000f0 26 fe c6 3b 2e a9 cf 3b d6 79 02 bd a6 68 40 3b
       0.0060727773 0.0063373065 -0.031854473 0.002935925
000100 61 04 b4 bc 18 6e cc 3c 7b c3 34 3c 27 f9 99 bc
       -0.021974744 0.02495484 0.011032934 -0.018795563
000110 72 7d 0f 3d 91 0e a1 3c 89 43 69 3c 18 3f ab ba
       0.035031743 0.019660266 0.014237293 -0.0013065068
000120 44 a3 45 3b cc 88 00 bd d1 e3 ff bc 15 1b 9a bc
       0.0030157128 -0.03138046 -0.031236561 -0.018811742
000130 1b 25 2a 3b bd 37 c7 3c b9 c8 fb 3c cc 59 54 bc
       0.0025962058 0.02431857 0.03073536 -0.012960862
000140 41 a9 ba bc 9c 11 2f 3d bf e0 58 bb 2a f2 23 bd
       -0.022785785 0.042741403 -0.0033092943 -0.040025868
000150 54 43 3a bc 72 04 c5 3c 08 7c 92 bc 87 a7 88 bb
       -0.011368591 0.024049971 -0.017881408 -0.0041703614
000160 24 55 a1 3c 05 8f 1e 3a f8 17 3c bd d5 ce bb bc
       0.019693919 0.0006048533 -0.045921296 -0.022925774
000170 5c 13 25 bc f4 45 67 3d 38 c9 1b bc f0 e9 00 3d
       -0.010075416 0.056463197 -0.0095084235 0.0314731
000180 2a 9d 8f bc da e2 35 3c 75 04 9f 3c ea 12 20 bc
       -0.017530996 0.011101449 0.019411305 -0.009770134
000190 b0 24 a2 3c 03 89 35 3d de 75 eb ba e8 42 35 bd
       0.019792885 0.044320118 -0.0017964204 -0.04425326
0001a0 62 f1 9a 3b 9c d2 c4 bc a0 7a db bc 6d 9d 46 3b
       0.004728482 -0.024026208 -0.02679187 0.0030306235
0001b0 15 5b 86 bc 4c d5 02 3c 66 25 8f 3c e2 31 02 38
       -0.016400853 0.007985424 0.017473888 3.1040872e-05
0001c0 5c f2 e5 bc 3b c2 b8 3b ba 49 8b bb 31 ba 01 3c
       -0.028069668 0.0056383885 -0.0042507323 0.007917927
0001d0 cb 4d 1a bd 2b c7 ce bb 8e 4e 08 bd 8c 30 94 bc
       -0.037671845 -0.0063103638 -0.03327804 -0.018089555
0001e0 f8 2c af 3c d5 fb 88 bc a1 f7 40 3d 1c e7 3e 3d
       0.021383747 -0.016721645 0.047111157 0.04660712
0001f0 55 4c 66 bc c4 2f 0a 3b 3d b0 5f ba 2d f5 87 bc
       -0.014056285 0.00210856 -0.00085330365 -0.016596401
000200 d1 22 08 3d f6 33 8e ba ee 48 b9 3c bb b9 9d 3c
       0.03323633 -0.0010849226 0.022617783 0.019253602
000210 ec 4d 6f bd 9a 00 f0 bc 41 c8 b7 bc bb d3 24 bd
       -0.05842392 -0.029297162 -0.022434356 -0.040240984
000220 31 91 1c 3d f3 d7 90 3c 46 ae 66 3d 79 65 ba 3c
       0.038224403 0.017681098 0.056318544 0.022753464
000230 c7 24 08 bc 65 6e 17 ba 7e ac 86 bb 9f 7f a6 3b
       -0.00830955 -0.0005776643 -0.004109918 0.0050811316
000240 c4 7c 08 3d d3 b5 89 3d e1 dc a1 bc d7 e3 62 bc
       0.03332211 0.06724133 -0.019758644 -0.013848267
000250 f4 ea c9 3b 53 c2 28 bd ed 61 fb b9 4a 8a 19 bc
       0.006162042 -0.041200947 -0.0004794741 -0.00937135
000260 87 a7 da bb e3 2b 88 bc a7 59 0b 3b d8 85 c9 bb
       -0.006672803 -0.01662249 0.0021263154 -0.0061499886
000270 c7 0a f6 3c 9a a5 3a bd 0f 3d 62 bb 5c 89 97 3b
       0.030034436 -0.045568086 -0.0034521257 0.004624529
000280 3c fd 5c 3d 51 5a cb 3c 28 a3 09 bc 0a 68 a2 bc
       0.05395244 0.02482334 -0.008400716 -0.019825
000290 b2 cd 1e 3d d4 5a 33 3c 84 55 99 bc f3 40 3f 3d
       0.038770385 0.010946948 -0.018717535 0.0466928
0002a0 6a e0 ae 3c b3 0e 10 bc c2 bb 01 3d 8a 8f b9 bc
       0.021347243 -0.008792567 0.0316732 -0.022651453
0002b0 4d 29 fc 3c d0 c3 e5 3c 90 fb 04 bd 66 ee 4e 3c
       0.030781412 0.028047472 -0.03246647 0.012630081
0002c0 83 5b f0 3a 28 fd 97 bc 2c 1a 2c 3d 1a 89 44 bc
       0.001833782 -0.018553331 0.042017147 -0.011995578
0002d0 e1 76 bf 3c eb 46 c2 3c b9 80 1d 3d fd 26 b1 bc
       0.023372116 0.023715457 0.038452838 -0.021625036
0002e0 1c 40 32 3d ae eb fa 3c 26 0f 0c 3c cb bb d8 3c
       0.04351817 0.030629959 0.008548534 0.026456734
0002f0 cd ac 5d bc 0c 8b 0e 3d d0 2b f7 39 4d 48 f1 3b
       -0.013529968 0.034800574 0.00047144154 0.0073633553
000300 11 2e 1d bc 2d 41 0c 3c 5e 5c f6 3a 7a 19 2a bd
       -0.009593503 0.008560461 0.0018795838 -0.041528203
000310 6a 63 4c bd d8 90 d5 3a 30 51 ff 3b 13 3c 7f bd
       -0.049899496 0.0016293777 0.0077916607 -0.06231315
000320 a5 71 a3 bc 51 f9 62 bd 91 ac 3b bd 38 c0 32 3d
       -0.01995165 -0.055413548 -0.04581887 0.043640345
000330 aa 68 2a bd f9 83 62 bc e9 22 74 3c 95 4a 76 bc
       -0.04160372 -0.01382541 0.014900901 -0.01503243
000340 50 f2 a2 bc e4 f6 ea 3c 34 e5 10 3d 16 24 e2 3c
       -0.019890934 0.02868218 0.035374835 0.027605098
000350 4e 6f 11 bd 1f 6e b1 3d 4e 40 0c 3d a1 1a bf 3c
       -0.03550654 0.08663582 0.034241013 0.023328127
000360 8d be 28 3d 8d 30 5b bd 28 db 1c bb b4 02 fe 3c
       0.04119735 -0.0535131 -0.0023934338 0.031007148
000370 1c 46 bb bc 09 46 06 3c a9 c1 36 bd d2 73 06 bd
       -0.02286058 0.008195409 -0.044618282 -0.0328253
000380 df b7 59 bd 29 12 4a 3d 7a 44 26 bc 95 a7 6c bc
       -0.05315387 0.049333725 -0.010148162 -0.014444252
000390 7b e6 a0 bd 09 c3 12 bd cd 41 8c bc b3 b0 ec 3b
       -0.07856461 -0.03583053 -0.01712122 0.0072232126
0003a0 ee 00 c8 3a 4b fa 2e 3c 39 c9 8b 3d 55 e2 7c bb
       0.0015259066 0.010679792 0.068254896 -0.0038587053
0003b0 66 8e 47 bb fc b3 09 bd f5 38 9b bd 52 53 55 3c
       -0.0030449866 -0.033618912 -0.07579223 0.013020353
0003c0 06 5e c6 3c d7 76 b4 bc 96 da 8a bd ad 54 40 3c
       0.024214756 -0.022029324 -0.06779973 0.011738938
0003d0 74 d4 7d bc 8d 7b 6f bd 30 e9 92 bd 1c c1 e2 3c
       -0.015492547 -0.058467437 -0.07173383 0.027679972
0003e0 80 89 5e bc dc 67 74 3c 1b 36 de 3c 9b 1a dd 3c
       -0.013582587 0.01491734 0.027125409 0.026990226
0003f0 bb 06 de 3c 9d a7 df 3c c4 cc b9 bc db 6c 21 3b
       0.027102819 0.027301604 -0.022680648 0.0024631533

enc.0.att.v_proj.bias f4 [64]
000000 83 f3 b5 3d 1b be 2f 3d f1 0e 51 3d 0c c3 73 bd
       0.08884337 0.042905908 0.05103964 -0.059512183
000010 76 7e 1a bd 95 00 53 3d 80 c3 a9 bd ed 41 e4 3c
       -0.03771826 0.051514227 -0.08289242 0.027863467
000020 47 50 fb bc 9d 3d 11 3d 50 20 dd bc 8b 9a 63 bd
       -0.030677928 0.03545915 -0.026992947 -0.055567306
000030 91 d0 6f bd 60 e9 89 3d dd df 04 bd bc 5d b4 bc
       -0.058548514 0.06733966 -0.032440055 -0.022017352
000040 5f 45 8e bd db 5a 93 3d dd 7d d5 3d 9b 92 23 bd
       -0.06946825 0.07195064 0.10424397 -0.039934736
000050 ef 81 43 bc 42 47 0d bd b5 12 3f bd f2 75 78 bd
       -0.011932834 -0.034491785 -0.0466487 -0.060659356
000060 7b 40 56 bc 2c 04 30 3d 6b fc 19 bd 70 59 61 3d
       -0.013076897 0.04297273 -0.03759424 0.055016935
000070 72 b0 01 bc 94 5a 53 bd 18 b8 66 bd c6 8f 64 3d
       -0.007915603 -0.051600054 -0.05632791 0.055801176
000080 8a 38 a7 3c e1 8e 1f 3d b6 1a bc 3c 7f 71 9d 3d
       0.020412702 0.03895462 0.022961956 0.07687663
000090 09 f1 25 bd 81 47 b8 bb 2a be d3 3c 2d 1c 09 bd
       -0.040513072 -0.0056237583 0.025847513 -0.033474136
0000a0 2d ed a8 bd 97 18 2c bd a2 f9 e9 39 82 2f 4c bd
       -0.08248363 -0.04201564 0.00044627214 -0.049849994
0000b0 63 00 30 bd 9c 0a 16 3d 24 c0 c6 3b fb 21 a9 bc
       -0.04296912 0.03663121 0.0060653854 -0.020646086
0000c0 56 e9 da bd 89 a0 37 3d f4 ce 20 bc 07 4a 9b 3b
       -0.106890365 0.044830833 -0.0098149665 0.0047390494
0000d0 a5 4a c5 3d 6e 69 17 3d 61 a1 6f 3d 98 4c 16 be
       0.09633378 0.03696578 0.058503512 -0.14677656
0000e0 66 fa d1 3d 92 94 6a bb e5 59 86 3d e0 3f 6c b9
       0.10252838 -0.0035794121 0.06560115 -0.00022530509
0000f0 81 ac a6 bc 20 62 6c bd 2a 53 eb 3c 6a 6c 85 3d
       -0.020345928 -0.057710767 0.02872618 0.06514819
