mnist_transformer_model.pth (torch, 914790 bytes, 116 tensors)

cls f4 [1, 1, 64]
000000 73 40 a5 3e 97 46 ae 3d 28 f5 21 3e 2c 2b e0 be
       0.32275733 0.08509558 0.15816176 -0.43782938
000010 59 9b f5 3d 17 54 6c be 8a c2 94 bc ca 1a 88 be
       0.11992521 -0.23078953 -0.01815917 -0.26582938
000020 19 33 99 bd bb 04 37 3e a9 ef 17 bc 35 ef 72 be
       -0.07480449 0.17872898 -0.009273448 -0.23724063
000030 05 0a b2 bd 1b 8c 16 be 05 42 9e bd 52 da 6e 3d
       -0.08693317 -0.14701883 -0.07727436 0.058313675
000040 8b 5c 98 3e ba f2 94 3c 16 85 31 3d be 57 97 3d
       0.29758105 0.018182147 0.04333981 0.07389782
000050 a1 41 4f bc c0 f3 36 3d 7c c6 a1 3d 05 44 b2 3e
       -0.0126499245 0.044666052 0.07899186 0.3481752
000060 9f 4f 19 3e b4 0b 2b 3e b5 42 71 3d 90 99 92 3d
       0.1497178 0.16703683 0.058901507 0.07158196
000070 c2 96 91 3c 5c 47 ea bc 7c cb b9 bc 92 76 d2 3d
       0.017772082 -0.02859848 -0.022680037 0.10276522
000080 bd 2d 36 be 3a b7 f3 bd c1 18 7f 3b 77 51 7e 3e
       -0.17790885 -0.11900182 0.0038924667 0.24835764
000090 76 00 6c 3b 32 85 c0 bc e1 2d bb bc 91 ff cc bd
       0.0036011017 -0.023501012 -0.022849025 -0.10009683
0000a0 ae f3 8a be 85 0b 00 3e 54 e5 e3 bd 47 af 38 bd
       -0.27139038 0.12504394 -0.11127725 -0.045089033
0000b0 97 7f 8a be c9 19 dc 3e b8 4f 1f be d7 70 55 bd
       -0.27050468 0.42988423 -0.15557754 -0.052109566
0000c0 77 a7 cb bd 84 fc c6 bd 78 6f 97 b9 a6 a8 ad 3d
       -0.09944051 -0.09716132 -0.00028884015 0.08479433
0000d0 a5 37 7c bd 39 0a 06 3e 4b f6 b3 bd 99 3d ce bc
       -0.061576504 0.13089837 -0.08787211 -0.025175856
0000e0 23 6c 97 be cc 13 c3 3c 4a e5 c4 3c b0 b6 a5 3d
       -0.2957469 0.02381315 0.024035115 0.080914855
0000f0 62 06 00 3d 62 3d c6 3e 66 60 21 be 11 28 ec 3d
       0.031256087 0.38718706 -0.1575943 0.115310796

emb.weight f4 [64, 196]
000000 aa b7 be 3b 33 cd 42 bd 0a 50 19 3d a6 2e 27 bc
       0.0058202343 -0.047558974 0.037429847 -0.010203993
000010 03 46 a8 3c 60 db 10 3d a1 1a b9 3d d8 4f da 3d
       0.020541197 0.035365462 0.09038282 0.1065976
000020 ff 4b eb 3d 89 04 3a 3d b6 4f ab bc 65 2b 8d bd
       0.114891045 0.04541448 -0.020912033 -0.068930425
000030 25 c3 74 bd 11 7d 02 3d 49 f7 45 3d 9c b7 87 bb
       -0.059756417 0.031857554 0.048331533 -0.004141761
000040 96 d9 47 bd 8a 19 79 bd 19 6b 1c 3d b5 f2 a3 bb
       -0.04879149 -0.06081537 0.038188074 -0.005003298
000050 5b 3f d4 3c 71 75 ce 3b 77 97 de 3c 7e b7 5f bb
       0.025909116 0.006300621 0.027171833 -0.003413647
000060 24 4b f1 3b 38 a0 ab bc ca 5a a6 3b 4b 61 06 3d
       0.007363694 -0.020950422 0.005076741 0.03280763
000070 29 aa 8d 3d 7f 98 0c bd 76 0a 9b bd 58 35 48 bd
       0.06917221 -0.03432512 -0.07570355 -0.048878998
000080 44 44 f0 3b 39 99 7c bd 12 c3 18 bd 4f a9 63 bd
       0.0073323566 -0.061669562 -0.03729541 -0.055581387
000090 9e 2b 83 bc 92 49 28 3d 4c d1 0d 3c b5 a1 7c bd
       -0.01601201 0.041085787 0.008655857 -0.061677653
0000a0 96 b6 d0 3c 2b b0 19 bc b4 6f 85 bd 9d be cd bd
       0.025477689 -0.009380381 -0.06515446 -0.10046122
0000b0 0d 34 43 bd b5 ac 29 bc 98 07 92 3c f2 a8 f8 bc
       -0.04765706 -0.010356118 0.017825887 -0.030353997
0000c0 e1 2a e1 3b 54 98 7a bd 2f 84 2e bd 07 7b dc bb
       0.0068715666 -0.061180428 -0.04260653 -0.006728533
0000d0 4b 7d 0e bc 98 c3 64 bd 0b 28 1e 3b 77 d4 3f bd
       -0.008696864 -0.055850595 0.0024132754 -0.04683348
0000e0 d4 89 66 bc 71 59 33 bd fd 54 7f 3c 38 82 0f bc
       -0.014070947 -0.04378647 0.015584228 -0.008759074
0000f0 da 6d a9 bc c3 3a 46 bd 83 8c df bc 2b f5 71 bd
       -0.020682264 -0.048395883 -0.02728868 -0.0590717
000100 33 9e 02 3d 4b 90 c1 bc df cb d1 bb f3 89 2f 3c
       0.03188915 -0.023628375 -0.006402477 0.010714042
000110 8d f2 94 bd af d4 a4 bc a5 91 19 bd eb 96 8a bd
       -0.072728254 -0.020120947 -0.037492413 -0.067670666
000120 9b e8 bf bc 29 0b ce 3a 7c 30 75 3d 96 35 9d 3b
       -0.023426345 0.0015719879 0.05986069 0.0047976477
000130 6f 55 34 3b a2 18 de bc c1 64 99 3c a2 bc 73 bd
       0.0027516743 -0.027111355 0.018724801 -0.059506066
000140 52 e3 33 bc 3c c0 12 bd 95 6c 7f bc 32 ce 56 bb
       -0.01097949 -0.03582786 -0.015589853 -0.003277671
000150 29 c9 55 3c 4b 69 8f bd bf 2b f8 3b c4 fc db 3c
       0.013048449 -0.07002505 0.0075735743 0.026853926
000160 e7 52 6b 3d cc 35 d8 bc d7 26 97 3d 90 e4 10 bc
       0.05745211 -0.02639284 0.07380455 -0.008843556
000170 d3 be 09 3d ac 12 03 3d 0b 4e 32 3d 86 51 aa bc
       0.03362925 0.03200023 0.04353146 -0.020790827
000180 be 06 19 3d f1 2d 49 bc 25 b5 23 3c 47 bc f0 bc
       0.037359945 -0.01227902 0.009991919 -0.029386653
000190 51 8d c5 3c 75 7b 13 3d 97 69 58 3d 81 25 5c 3d
       0.024115236 0.03600641 0.052835073 0.053746704
0001a0 8d 05 6e 3d db 8e bc 3c d4 9d 14 bc b3 c8 a2 bb
       0.058110762 0.023017338 -0.009070832 -0.004967773
0001b0 cd 6b 3a 3d 50 9b 2f bd ee 9f 9e bd 72 62 d4 bc
       0.045512963 -0.042872727 -0.07745348 -0.025925849
0001c0 67 06 2f bd 7d 1d 2e 3d e8 90 1e 3d c0 fb d4 3b
       -0.042730715 0.04250859 0.038712412 0.0064997375
0001d0 7e 16 ae 3d ae d4 19 3d ff c8 08 3d 05 d3 a9 3c
       0.08500384 0.037556343 0.03339481 0.020730505
0001e0 e6 39 6d 3d e0 60 17 3d 99 6c b1 bc 8a 10 5a bd
       0.057916544 0.03695762 -0.021658229 -0.05323843
0001f0 89 6c 25 bd b6 e9 e3 3b 92 b4 8c bd 6f f7 66 bd
       -0.04038671 0.0069553507 -0.068703786 -0.056388315
000200 51 55 16 3d 39 61 6c 3d 37 c4 2d 3d 6e 02 23 3d
       0.036702458 0.057709906 0.042423453 0.03979724
000210 1f eb 2e 3d 08 b3 68 3c 0b 22 10 3c 21 4d b2 bc
       0.042704698 0.014202841 0.008797179 -0.021765294
000220 ed 9f 85 bd e5 e0 76 bd cf 51 20 3d d6 70 84 3c
       -0.06524644 -0.06027307 0.03914052 0.016167086
000230 97 95 c9 bc 85 eb c0 bc c7 d8 b5 bc 9e 00 15 bd
       -0.024607463 -0.023549804 -0.022198094 -0.03637754
000240 64 6a 43 bd 34 ed 48 3c 45 0a fa 3c 0a 7a 23 3c
       -0.047708884 0.012263585 0.030522475 0.009977827
000250 2c 37 16 bd 07 df eb bc 61 8f 0b bc e0 72 89 3c
       -0.03667371 -0.028792871 -0.008518071 0.01677841
000260 4c dc 63 bb 62 64 1c bd 21 61 7b 3c 5d 00 4c 3c
       -0.0034768758 -0.03818167 0.015342982 0.0124512585
000270 84 e6 32 bc df 58 9a 3c b9 b9 6a bd 7d 35 23 bd
       -0.010919217 0.018841205 -0.057306025 -0.039845932
000280 24 9a 87 bd f5 0f d7 3b 54 4b 62 bc 93 62 a1 3b
       -0.06621197 0.0065631815 -0.013811905 0.004925081
000290 46 a2 bb bc fa 7c 48 bd 77 9c 35 bd 7c eb 5e 3b
       -0.022904526 -0.048947312 -0.04433867 0.0034014871
0002a0 a0 44 82 3a e9 c2 15 3d ec 05 8a 3c 68 1f 19 3c
       0.0009938665 0.036562834 0.016848527 0.009345867
0002b0 cc 61 70 bb 7d 1b 92 bd 7f fc 87 bd 7e ae 2f bd
       -0.0036679385 -0.07134149 -0.06639957 -0.042891018
0002c0 49 02 9b 3c 3c 69 08 bd 4d ce 50 3d ec d2 7e bc
       0.018921988 -0.033303484 0.050977994 -0.015553217
0002d0 b2 41 24 3c 12 1e 50 bd 9a 99 34 bd c7 b6 37 3c
       0.010025429 -0.050809927 -0.0440918 0.011213011
0002e0 7a 37 31 bd c6 18 24 3d ca d9 62 bc aa 9d 59 bd
       -0.043265797 0.04006269 -0.01384587 -0.053128876
0002f0 73 e7 75 bd 38 5b 14 bd dd af 63 bb c5 5e 61 bc
       -0.06003518 -0.036219805 -0.0034742274 -0.013755505
000300 a1 5a 62 3d 14 58 f2 bc 99 55 fb 3c c7 b2 ff 3c
       0.05526221 -0.029583015 0.030680465 0.031213177
000310 8d fd 43 3d 0f 2e 61 bd d8 a0 32 3d 93 49 9e bc
       0.047849227 -0.054975566 0.043610424 -0.019322192
000320 55 c6 c4 3b 88 45 f9 3c 0c e4 12 bb 50 80 80 bc
       0.0060050883 0.030428663 -0.0022413759 -0.015686184
000330 18 1b 92 bb 1e 7f 31 bd 57 d4 17 3a 1c 90 41 bd
       -0.0044587962 -0.04333412 0.0005791834 -0.047256574
000340 1c e2 40 3c 90 d9 90 3d df 0c 7c 3d ee b2 77 bc
       0.011772659 0.07072747 0.061535712 -0.015118344
000350 6c a7 06 bd 37 15 4f bc dd f0 c4 bc 18 bc db bd
       -0.03287451 -0.012639335 -0.024040634 -0.107292354
000360 64 eb 83 bd 54 f2 6e bd 08 1c 79 3c 77 33 de bc
       -0.064413816 -0.05833657 0.015204437 -0.02712415
000370 14 c2 01 bd 4d 46 ec 3b 1b 41 5a bd 69 c6 9b 3d
       -0.031679228 0.007210529 -0.053284746 0.07606203
000380 26 66 25 3d 33 10 d6 3c 9f 65 ff 3c c9 ca 28 bd
       0.04038062 0.026130771 0.031176386 -0.041209016
000390 f2 98 87 bd 41 e7 8d bd a6 54 96 bc d7 46 5e bc
       -0.06620969 -0.06928874 -0.01835091 -0.013566694
0003a0 e6 8f 5b bd 9d b6 22 bd 32 15 98 bc 81 4c 38 3d
       -0.05360403 -0.039724935 -0.018564794 0.044994835
0003b0 f7 5c 10 3c 61 5a 6c 3c fa 8b 90 3a f5 08 89 bb
       0.008811227 0.014425845 0.0011028044 -0.004181976
0003c0 25 38 72 bd a5 92 5c bc 1e f9 39 bd e1 8f 6e bc
       -0.059135575 -0.013462697 -0.045403592 -0.014560671
0003d0 66 18 85 bc 6e e6 3d bb 43 64 ee 3c 17 00 6b bc
       -0.016246986 -0.0028976458 0.029100543 -0.014343283
0003e0 f3 92 76 bd 80 fd 6a 3c 0a af 97 3b 54 3e 69 3d
       -0.060198735 0.014342666 0.0046290206 0.056944206
0003f0 13 21 17 3d cd 8d 6f 3c 2c 1c 98 bd f4 51 42 bc
       0.036896776 0.01462121 -0.07427248 -0.011860359

emb.bias f4 [64]
000000 fd 58 50 bb 79 58 0c 3c 7a 87 bd 3a db a4 29 bd
       -0.0031791322 0.008566015 0.0014459931 -0.041416984
000010 07 82 46 bd c0 96 a7 3b 61 82 94 bd 25 73 5e 3d
       -0.048463847 0.0051144063 -0.0725143 0.05430903
000020 63 e9 c0 bc af 24 2b 3d 1a 4a cb bc dd d0 b8 bc
       -0.023548787 0.04178303 -0.024815608 -0.022560531
000030 aa 51 cb 3c 1f 6a 64 3d 28 74 f6 bc 18 62 95 3d
       0.024819214 0.055765267 -0.030084684 0.072941005
000040 ec ee 3e 3d 8b 82 a4 bc 99 b0 48 3b c6 7a 7e bd
       0.046614572 -0.020081779 0.0030622839 -0.062128805
000050 dc 77 66 bd 78 83 82 3d f2 86 72 3d 51 d5 e7 3c
       -0.05626665 0.06372732 0.059210725 0.02829996
000060 91 5b 37 bc 97 fb 5a 3d a2 e1 0f 3d 8f f2 87 3d
       -0.011191265 0.05346259 0.03512729 0.06638061
000070 57 c4 17 3d ba b2 71 3d 47 6a 88 3c d2 d3 fb 3c
       0.03705248 0.059008338 0.01665224 0.030740652
000080 61 1c be bc 4f b5 57 bb 4a db 04 3c 33 e2 8c bd
       -0.023206891 -0.0032914465 0.008108923 -0.068790816
000090 f9 57 99 3d fc 48 a0 bc 92 41 6c bd 0d ab 88 bd
       0.074874826 -0.019566052 -0.05767972 -0.0667325
0000a0 cb b3 21 3c b7 85 d1 bc 90 2b 42 3b 49 a7 67 bc
       0.009869526 -0.025576456 0.0029628016 -0.014139005
0000b0 0c 60 89 bb cf ea 75 bc 7a 4b 63 3c 1f 72 5d 3d
       -0.004192358 -0.015009596 0.0138729755 0.054063912
0000c0 93 ca 7e 3d fc d4 6d bd dd ec 49 3d 85 9d ac bb
       0.06220491 -0.058064446 0.049298156 -0.005267801
0000d0 4b 48 5a 3c b4 74 3f bc 2f 59 e5 3a 43 d0 94 3d
       0.0133229 -0.011685539 0.0017497892 0.07266285
0000e0 81 92 29 ba de ee e7 bc 01 e2 76 bd 6e d4 c7 3c
       -0.0006468669 -0.028312143 -0.060274128 0.024393287
0000f0 31 64 f6 bc 8b 97 6c bb 0b 3a ad 3b 5e da b8 bd
       -0.030077072 -0.0036101069 0.0052864603 -0.09026025

pos.weight f4 [17, 64]
000000 ef 60 0b 3c 98 ff d4 3b 97 4d c9 3d 38 3c b7 3d
       0.0085069975 0.0065001957 0.09829252 0.08947033
000010 ad 16 8a be d7 44 93 bd 39 e9 26 3d 30 ee 1a b9
       -0.26970425 -0.071908645 0.040749762 -0.00014775316
000020 8b c2 be 3c bf 4f 33 bd 90 a0 33 3e 4e 2a 97 3c
       0.023286125 -0.043777224 0.17541718 0.01845279
000030 d4 99 ca be fb a2 6f be d6 80 c7 bc f4 88 46 3d
       -0.39570487 -0.23402016 -0.024353426 0.048470452
000040 f0 47 ad be d3 00 bf bb 2d 14 24 3d fc 9a 8d 3d
       -0.33843946 -0.0058289557 0.040058304 0.069143265
000050 f7 2f 2d 3d 1c b3 f4 bc b3 1b ad bd 7c 5d 48 be
       0.04228207 -0.029870562 -0.08452549 -0.19566911
000060 cf 64 9d be 67 80 06 bd 2e 4d 40 be 12 0d f1 bd
       -0.30740973 -0.032837298 -0.18779442 -0.11770071
000070 d3 24 91 3c ce 1e 1e bd 59 84 85 be dc eb cb bd
       0.017717754 -0.038603596 -0.26077536 -0.09957096
000080 f7 2f d3 bd 12 e5 98 bd fe 0f 4d bc fd a9 fa bd
       -0.10311883 -0.07465567 -0.01251602 -0.12239454
000090 f3 ca 2a 3e f0 00 fa bc 8d ff af be 9f c6 3a be
       0.16678981 -0.030518025 -0.34374657 -0.1823983
0000a0 7e fa 07 3e 6d f8 ac 3c b6 99 6a 3e 32 17 2a 3d
       0.13279149 0.021114552 0.22910199 0.041526027
0000b0 98 85 fc bd 85 ff dd 3c be c5 ab 3b b3 b3 cc bc
       -0.123301685 0.02709938 0.0052420786 -0.024988031
0000c0 e1 39 0c be 89 7a 85 bc 85 87 36 3d bf 76 f4 3e
       -0.13693954 -0.01629378 0.044562835 0.47746846
0000d0 19 e8 93 bd 23 5e 59 3d a2 08 91 3d 67 02 0f 3d
       -0.072220035 0.05306829 0.07081725 0.0349144
0000e0 3d bc 11 be c3 ac f8 bb 17 b7 1b 3d 80 a4 d5 3c
       -0.14231963 -0.007588954 0.038016405 0.026079416
0000f0 ba 77 c7 3d 5c be 51 be 29 2a 88 3d 37 66 5e 3b
       0.09739633 -0.20482773 0.066486664 0.0033935437
000100 67 41 a2 bf 63 65 c6 3c 9c bf 0a bf 88 4b db be
       -1.2676209 0.024218267 -0.5419862 -0.42831063
000110 7f a4 96 bf 40 f8 fd be a2 07 17 3f 8e ab 4b 3e
       -1.176895 -0.49603462 0.5899602 0.19889662
000120 2d 24 da ba 25 94 d5 3e 01 b2 0e bc 16 87 bb 3d
       -0.0016642861 0.41714588 -0.008709432 0.09156625
000130 99 16 3e bf 81 9f bd be 98 86 a2 3e 4a 6e c7 be
       -0.7425323 -0.37035754 0.31743312 -0.3895133
000140 ff 86 06 be e9 e6 83 bf 10 49 91 be 13 18 16 be
       -0.13137434 -1.0304843 -0.28376055 -0.14657621
000150 95 54 d1 3e 6a f0 31 bd ac 9d 17 3f ab f0 d0 bd
       0.40884843 -0.043442167 0.59224963 -0.10202154
000160 c9 30 52 bf af 93 36 3e 9b f8 2d bf b2 fb 30 bf
       -0.8210569 0.17829774 -0.67957467 -0.69134057
000170 3c 18 0a 3f f8 97 42 3f bc 93 43 3f cd ae 23 3e
       0.5394323 0.76013136 0.763973 0.1598465
000180 57 05 22 bf 65 63 1f be bb e7 13 bf da ff 42 3d
       -0.632894 -0.1556526 -0.5777547 0.04760728
000190 b3 6b 16 bf e0 4f 72 3f 9a da e1 3d 6a ca 05 3e
       -0.58758086 0.9465313 0.11028023 0.13065496
0001a0 92 35 03 bf 08 23 43 3f 9f b3 17 bf f4 10 9f 3e
       -0.51253617 0.7622533 -0.59258455 0.31067622
0001b0 1a e6 24 be ff 4e af 3e 98 8e 2b be 50 df 79 3e
       -0.16103402 0.34239957 -0.16753614 0.24401593
0001c0 5c 89 42 bc a3 6f 39 be 51 2e c9 be 70 98 7d bf
       -0.011873569 -0.18108992 -0.3929315 -0.99060726
0001d0 77 cd 63 3e 58 5a 1c 3e 93 32 3d be 3e 7a eb bd
       0.22246347 0.15268838 -0.18476324 -0.11497925
0001e0 2c 45 af bd 0a ee 55 3e 7b ae d9 3e 1c a3 e4 be
       -0.08558115 0.20891586 0.4251593 -0.44655693
0001f0 cf de da be 83 98 ef 3e 68 05 c0 3d 03 96 30 bf
       -0.42748114 0.46796045 0.09376031 -0.689789
000200 97 e8 dd bd 52 d8 87 3e 41 64 96 bf c7 41 b2 3e
       -0.108353786 0.26532227 -1.1749345 0.3481581
000210 a0 8a ba bd 01 80 ba 3e d2 d7 f6 be 75 91 2d 3f
       -0.09108472 0.36425784 -0.48211533 0.67800075
000220 17 73 6b 3e bd 36 45 3e 6f f9 de 3d 9d 2b 45 bf
       0.22993122 0.19259162 0.108874194 -0.77019674
000230 06 a9 65 3e e0 61 bd 3c 39 9d 05 be 34 89 b8 be
       0.22427759 0.02311796 -0.13048257 -0.36042178
000240 6d eb dc bb 5f 03 1a bf cd 76 3e bf 88 3c 63 3e
       -0.006741932 -0.60161394 -0.74400026 0.2219106
000250 ad b5 66 3e eb 26 42 be 6f 20 b5 3c f0 2f 00 3e
       0.22530241 -0.18960159 0.022110192 0.12518287
000260 d3 22 d9 3d 2f db e1 bc 43 9c 12 3f 05 d3 f8 3e
       0.10602345 -0.027570335 0.57269686 0.48598495
000270 2c e6 11 bd af 9e 49 be 0a 83 89 be 9f 5b 42 bf
       -0.0356199 -0.19689439 -0.26857787 -0.7592105
000280 63 7f 4f 3f ec 88 01 3e 56 14 72 3e ad d7 65 3e
       0.8105375 0.12649888 0.2364057 0.22445555
000290 e4 f9 7d 3d 49 0c 5d 3e 76 c6 75 3e 15 cd b6 3e
       0.062005892 0.21586718 0.24001488 0.3570334
0002a0 bb 1c e8 3d 4e eb 12 3f 89 56 4d 3e 89 2c 89 3e
       0.11333605 0.57390296 0.20052542 0.2679179
0002b0 b0 d8 fe bc e3 f8 1f 3e 5a 87 90 3e 9d 95 a1 3f
       -0.031109184 0.15622286 0.28228265 1.2623783
0002c0 ac 5a 6a be ca e3 1f 3e c6 7f ec bc c6 97 b2 be
       -0.22886151 0.15614238 -0.02886952 -0.3488142
0002d0 50 cc 59 be 34 9a 58 3e 29 e4 b0 3e 39 38 4c bf
       -0.21269345 0.21152574 0.34549072 -0.7977329
0002e0 90 71 37 bf 74 78 e6 3e 09 14 70 3e dd 74 70 3f
       -0.7165766 0.45013773 0.23445143 0.9392832
0002f0 5e 87 df be cf e9 49 3e dc dc 3d bd 90 8a 8b be
       -0.43657964 0.19718097 -0.046353206 -0.27254152
000300 0e 5a 3b bf b6 04 d8 3e 1d 72 0a bf 3d ee 50 be
       -0.7318429 0.42191094 -0.54080373 -0.2040338
000310 38 52 f2 bd a3 36 00 3e 2c 0e 84 bf b6 c5 26 3d
       -0.11832088 0.12520842 -1.0316825 0.040715896
000320 4b 05 6d 3d d0 6f 16 be af 55 23 3f 4a e2 5f 3e
       0.057866376 -0.1469109 0.6380262 0.21863666
000330 8e 77 93 3e 7a 2f 9b be 89 67 90 be c3 f9 12 3f
       0.2880215 -0.3030966 -0.2820399 0.57412356
000340 56 86 4d bf 89 7a e2 3e d9 51 c1 3e 12 bf b9 3e
       -0.80283105 0.44234112 0.37757757 0.36278588
000350 ff ad 12 3e d6 a4 b9 bd c1 7f b8 3e a2 ca 5e be
       0.14324187 -0.09064643 0.36034968 -0.21756986
000360 17 5c 16 3f 20 1e e1 be 58 28 83 3c 86 82 05 bf
       0.5873427 -0.43968296 0.016010448 -0.5215229
000370 1b 40 46 3c 0b 84 70 3e fb 80 c2 bd 47 08 4c 3f
       0.012100245 0.2348787 -0.09497257 0.7970013
000380 5b 77 0f 3e d0 0f 07 bf bb 30 5b 3e ac c8 08 3e
       0.14010374 -0.527585 0.21405308 0.133578
000390 5e 93 88 3e 70 aa 82 3c 25 22 17 3e 71 36 48 3e
       0.26674932 0.015950412 0.14759119 0.19552018
0003a0 c4 06 a0 3e 82 4c fc 3e d5 36 11 3d 20 a2 e6 be
       0.31255162 0.4927712 0.035452683 -0.45045567
0003b0 b8 f5 75 3e 66 ab 3e bf 67 92 ae bd 27 27 2f bd
       0.24019516 -0.74480283 -0.08524018 -0.042761948
0003c0 61 72 fc 3e 21 95 05 3f cf d7 33 bf ce 3c 4a 3f
       0.49306014 0.5218068 -0.7025117 0.7899903
0003d0 b4 ac da 3e 1e dc e6 bc 90 75 4f bf d0 97 77 be
       0.42709887 -0.028181132 -0.8103876 -0.24179006
0003e0 36 1c 89 be 4c 8e 49 be 12 4e 64 bf 70 61 12 3f
       -0.26779336 -0.19683188 -0.89181626 0.5717993
0003f0 56 a0 60 be fa 67 07 bf de 80 0f bf ee b1 78 be
       -0.21936163 -0.5289303 -0.5605601 -0.24286625

enc.0.att.q_proj.weight f4 [64, 64]
000000 e3 54 8c bb 0d b5 71 3c c7 53 1d bc b8 fd 3a 3a
       -0.00428258 0.0147526385 -0.009602494 0.0007133144
000010 dd c9 e4 3b 53 a6 a5 3c 23 f2 53 bc 61 e1 32 3b
       0.006982072 0.020220911 -0.012936148 0.002729498
000020 cc fc 36 bc 55 ec 5f bc 91 36 bf bb b1 90 33 3c
       -0.01116867 -0.013667186 -0.0058353622 0.01095979
000030 c2 4f 8d bc 33 35 c9 bc 4d e4 95 bc da 2a 7b 3c
       -0.017249946 -0.0245615 -0.018297339 0.015330041
000040 37 6e 28 3b 30 25 aa 3c 2a 16 dd bb d4 93 7d 3c
       0.0025700459 0.020769686 -0.006747027 0.0154771395
000050 8f a2 65 3c 9b 0a ca bc 25 fd 5a 3c 3f d2 ee bb
       0.014015808 -0.02466326 0.013366018 -0.007288247
000060 a0 14 07 bc 4f 5c ca 3c 8d 37 9c 3b 33 00 8c 3b
       -0.0082446635 0.02470222 0.0047673644 0.0042724847
000070 99 af 65 3c 0e 17 c8 bb 46 17 b8 ba a5 19 2a 3c
       0.0140189165 -0.006106264 -0.0014045022 0.010382091
000080 53 0c 03 3b 6f ab ae bb fe a0 76 3c 49 87 4d 3c
       0.001999636 -0.005330495 0.015053032 0.0125444615
000090 39 9b 98 3c ef 0b 31 39 8c 67 2d 3c bb 23 87 3c
       0.018628703 0.00016884481 0.0105837695 0.01649653
0000a0 dd 0c c3 ba 75 a9 87 bc 83 0d a3 bb fc a6 1c bc
       -0.0014881153 -0.016560296 -0.004975976 -0.009561297
0000b0 ee 52 3c bb 8f ab 2a 3d 43 d1 af bc d2 d4 95 bb
       -0.0028735953 0.041667517 -0.021462088 -0.0045724893
0000c0 5d bc 8e bc 34 2a 97 bc d9 fe 55 3c 9f 91 8f 3c
       -0.017423803 -0.018452741 0.013061249 0.017525492
0000d0 60 fe 94 3c a7 b0 9b 3c 1f 41 a7 3a 46 9a 3d bc
       0.018187702 0.019005133 0.0012760496 -0.011572426
0000e0 ae 9a cf bb 42 03 e1 3a 13 b1 bd 3b 80 ac d9 bb
       -0.006335578 0.0017167109 0.005788931 -0.006642878
0000f0 85 93 22 3c 4e aa 83 3b c6 9c 88 3c 3d ee 10 bc
       0.009922867 0.0040181046 0.016676318 -0.008845863
000100 dc 9d da ba 95 4f f2 3b fe 1c 0c bc 07 67 8f bb
       -0.0016679126 0.007394741 -0.008551834 -0.0043762955
000110 f4 75 96 3a 32 26 21 3c b6 f9 e3 bb b7 1e b9 3a
       0.0011479245 0.009835767 -0.006957258 0.0014123534
000120 1b 0b ed bb 7b 26 f8 bb 01 5c 3e bb e2 c8 00 3c
       -0.00723399 -0.0075729466 -0.0029046538 0.007860394
000130 ab 6c 0d bc 80 c1 8a bc b8 ab a7 bb b5 aa bd 3b
       -0.0086318655 -0.016937971 -0.005116906 0.005788172
000140 40 7f 07 39 58 18 b9 3b 13 fc 5c bb a7 bc b0 3b
       0.00012922008 0.005648654 -0.0033719584 0.005393583
000150 ad 8e 15 3c 33 6a 3e bc ae d3 13 3c d1 20 c0 ba
       0.009128255 -0.011622 0.009022636 -0.0014658218
000160 d8 3e 4f bb 28 26 3e 3c ad af df 3a 5c 73 6c 3a
       -0.003162315 0.011605777 0.0017065905 0.00090198754
000170 97 69 64 3b b4 32 73 ba a4 39 f5 3a 55 df a4 3b
       0.0034852976 -0.000927727 0.0018709195 0.005031506
000180 04 4b 5f 3b 79 53 08 bb 4e 75 d3 3b 93 d9 cf 3b
       0.0034071812 -0.0020801707 0.006453193 0.0063430755
000190 6f 27 cf 3b f6 59 9d 3b e7 9e d9 3b ea 3f 1a 3c
       0.0063218395 0.004801984 0.006641257 0.009414652
0001a0 ab 2b a1 b9 ac d5 a4 bb f9 1c c8 ba e2 33 c0 bb
       -0.00030740848 -0.0050303545 -0.0015267424 -0.00586556
0001b0 b8 f3 6d bb fd 78 88 3c 75 6d 93 bb ab 50 20 bb
       -0.0036308598 0.016659254 -0.0044991323 -0.0024462144
0001c0 b6 c3 7e bc d0 ee 1b bc 37 3a ee 3b 7b c5 06 3c
       -0.015549591 -0.009517387 0.0072701233 0.008225794
0001d0 ed c4 d3 3b 04 ac 34 3c 3b bc 26 3b 7c e0 d2 bb
       0.0064626844 0.01102734 0.0025441784 -0.006435452
0001e0 0c 3c 23 bb 83 7e dd 3a 0b c7 b7 3a 42 3f 1e 3b
       -0.0024907617 0.0016898665 0.0014021111 0.0024146591
0001f0 cc 87 9a 3b 49 9a 94 3a 12 f6 05 3c 08 e0 09 bc
       0.0047158953 0.0011337484 0.0081763435 -0.00841523
000200 64 b4 63 ba 10 45 fb 3a 01 70 f5 ba 81 48 b5 3a
       -0.0008686243 0.0019170363 -0.0018725396 0.0013830812
000210 0a ce 13 3b c1 dd 91 3b 95 56 2a bb 56 48 0d 3a
       0.0022553229 0.004451484 -0.0025991548 0.0005389502
000220 5b 01 c9 ba a5 30 17 bb 23 e3 bb b9 34 c9 05 3b
       -0.0015335487 -0.0023069766 -0.0003583665 0.0020414116
000230 a3 32 71 bb 39 3f be bb 48 9f 99 bb 51 60 37 3b
       -0.0036803863 -0.0058058766 -0.0046881773 0.0027980993
000240 9b da 9d 3a b6 b2 ae 3b 7f d7 2f ba b5 53 42 3b
       0.0012043299 0.0053313626 -0.00067078316 0.0029651944
000250 5a a8 46 3b 1a 2d a4 bb 50 1d f6 3a d6 f9 15 bb
       0.0030312748 -0.0050102593 0.0018777046 -0.002288451
000260 c1 2c 93 ba 49 55 a6 3b 5f ff f5 3a 9a 56 98 3a
       -0.0011228548 0.0050760848 0.0018768123 0.0011622489
000270 5a b5 0f 3b b9 7c fa ba 5c 01 68 ba 4b f2 30 3b
       0.0021928162 -0.0019110657 -0.00088503 0.0026999887
000280 db ed ef b9 0a 9a 6f ba b4 ef 69 3b 25 20 31 3b
       -0.00045762848 -0.000914008 0.0035695853 0.0027027216
000290 14 35 88 3b d3 30 6e ba 14 e3 ea 3a 85 70 f1 3a
       0.004156718 -0.0009086255 0.0017920458 0.0018420374
0002a0 22 11 5f b9 42 ae 6c bb 63 98 61 37 3f 40 b1 ba
       -0.0002127332 -0.0036114608 1.3446525e-05 -0.0013523175
0002b0 aa 8b b8 b7 70 0a de 3b 38 50 c0 bb 2c 41 a8 b9
       -2.1999545e-05 0.0067761466 -0.005868938 -0.00032092014
0002c0 47 57 80 ba d9 bc 8a bb 98 18 0a 3b e8 c0 80 3b
       -0.0009791636 -0.004233938 0.0021071788 0.003929246
0002d0 51 35 9c 3b e8 e9 96 3b 37 c1 2d ba b8 08 38 bb
       0.004767098 0.0046055205 -0.00066282175 -0.0028081369
0002e0 16 19 21 ba a2 bd a1 39 ae c2 64 39 c9 1b c9 ba
       -0.00061454007 0.000308496 0.00021816298 -0.0015343364
0002f0 d9 9b 49 3b a8 84 71 b9 c4 4a 86 3b fa 43 a2 ba
       0.0030763058 -0.0002303297 0.004098268 -0.0012379878
000300 fe 40 d9 b9 57 04 82 3a 8a fc 81 3a ee e2 4d 3b
       -0.00041437888 0.0009919506 0.0009917181 0.0031415778
000310 30 e9 5e 3b 82 93 a1 3b 1e 25 d3 ba cd 29 0c bb
       0.0034013502 0.0049309144 -0.0016109084 -0.002138722
000320 47 14 f1 ba 32 11 02 bb e6 29 f7 ba 94 70 b8 3a
       -0.0018392884 -0.0019846675 -0.0018857091 0.0014071637
000330 33 48 8d bb df 28 90 bb d6 bf 8b bb d2 d8 8c 3b
       -0.0043115853 -0.0043994035 -0.004264812 0.004298308
000340 77 43 c1 3a 73 65 f5 3b 81 cb a5 b9 71 fa 69 3b
       0.0014744838 0.0074889003 -0.00031622875 0.0035702253
000350 01 6c 49 3b b5 d1 ac bb 32 3d e4 3a 8b 6a d5 ba
       0.0030734541 -0.0052740225 0.0017413257 -0.0016282363
000360 f4 e2 b3 ba 07 19 c6 3b 55 00 80 3b 04 32 21 3b
       -0.0013724254 0.006045464 0.0039062896 0.0024596462
000370 3b 4f 5a 3b 9d d8 18 bb 34 ac 45 bb 95 74 25 3b
       0.0033311385 -0.002332247 -0.0030162456 0.002524649
000380 7c 19 3c ba 5c 44 5e ba c9 eb 98 3b 9b fe 48 3b
       -0.00071754283 -0.0008478814 0.0046667797 0.0030669335
000390 97 5b c5 3b cf 4f 83 bb f5 0f cb 3a d1 11 65 3b
       0.0060228813 -0.0040073167 0.0015492426 0.0034953246
0003a0 6c 9d b7 ba 52 a7 67 bb 16 4c ea b9 7b f3 ab ba
       -0.0014008707 -0.0035347533 -0.00044688646 -0.0013118827
0003b0 af 60 31 b9 e6 f4 bd 3b 12 b3 5f bc 9f f3 42 ba
       -0.00016916053 0.0057970164 -0.0136535335 -0.0007436815
0003c0 35 4f 6d 3b 62 de aa bb e1 0a 85 3b e6 8c 85 3b
       0.003621054 -0.0052144984 0.0040601348 0.0040756343
0003d0 5b f4 b2 3b 90 06 8e 3b 13 5c c2 3a ab 55 36 bb
       0.0054612583 0.0043342784 0.0014828466 -0.0027822058
0003e0 7d 76 0a bb 87 c2 1e 3a 52 18 6c 3a 89 0e 92 bb
       -0.0021127753 0.00060562085 0.00090063096 -0.004457299
0003f0 a3 8c 7a 3b aa 41 a2 b9 2e 77 31 3b 29 c6 8b 3a
       0.0038230799 -0.0003094797 0.0027079093 0.0010663915

enc.0.att.q_proj.bias f4 [64]
000000 0e 54 27 ba 8f ea 5e ba cb 2c 0e b9 8a 54 ce ba
       -0.00063830696 -0.000850358 -0.00013558862 -0.0015741747
000010 81 e1 a7 ba 0b a1 9a ba b6 81 a0 3a f5 6f 2e bc
       -0.0012808294 -0.0011797262 0.0012245688 -0.01064681
000020 e3 18 e4 b8 e0 cf 0d 3c 66 84 bc b7 da c3 8e 3c
       -0.00010876523 0.008655518 -2.2473e-05 0.017427374
000030 30 c3 0e bb 47 c7 3b bb fd bc 94 3b 4b e2 98 ba
       -0.0021783821 -0.0028652714 0.0045391307 -0.001166412
000040 54 0c 59 bb d5 8e de bb 11 c9 6c ba 8a 5b cf 3b
       -0.003311892 -0.0067919292 -0.0009032647 0.006328051
000050 32 e8 3c 37 3a 5e a8 3b ca 72 15 bc 94 52 0c 3c
       1.1259735e-05 0.005138186 -0.009121606 0.00856461
000060 b4 0e 9d 3b 5a 0f 32 3b e1 ee 27 3c 8e e5 5e bc
       0.0047930125 0.0027169795 0.010249824 -0.013604535
000070 23 f8 a8 ba 88 69 f8 bb 17 f4 0f bb 7f ab 14 3c
       -0.0012891333 -0.0075809397 -0.0021965557 0.009074091
000080 b0 d8 9a 3a ed f0 50 3a ae 25 3d bb a2 64 78 bc
       0.0011813845 0.0007970471 -0.002886157 -0.0151607115
000090 5e 91 1a 3b 76 63 87 b9 d8 f4 48 bc 2d bb b0 3c
       0.002358518 -0.0002582331 -0.012265407 0.021573627
0000a0 06 33 f3 3a 30 9a 07 3b 2d 3a c1 bb 52 75 24 bb
       0.0018554635 0.0020691268 -0.0058968277 -0.0025094342
0000b0 53 04 04 bb 94 53 03 bc 48 3b 22 bb c5 6a 1a 3c
       -0.002014418 -0.008015532 -0.0024754573 0.00942487
0000c0 c7 df f6 bc b0 f4 2b bd 65 95 c7 3c 3a fc aa bd
       -0.030136002 -0.0419814 0.024363229 -0.0834889
0000d0 12 be ec 3c fe 4f ad bd 96 a3 1a 3d 1b 31 d3 3d
       0.028899226 -0.08462523 0.037753664 0.103121005
0000e0 57 6e 01 3c 88 6c f1 bc 0d 3b ee 3c b7 db c9 3d
       0.007899842 -0.029470697 0.029080892 0.098563604
0000f0 95 19 93 3d 63 ec d1 bc 2e 3b 99 3b 67 23 85 3b
       0.07182614 -0.025625413 0.004676244 0.004063058

enc.0.att.k_proj.weight f4 [64, 64]
000000 08 52 94 3b 69 45 c3 bb 1b 6a 86 bc 44 94 85 bc
       0.0045263804 -0.005959202 -0.016408017 -0.01630605
000010 bb 72 14 bc c6 69 f0 3b 61 52 c8 bc 41 f1 2d 3c
       -0.009060557 0.007336828 -0.024453344 0.010616601
000020 10 a5 15 bc b3 f2 67 bc d1 20 6a bb 23 2c f4 3b
       -0.009133592 -0.014156985 -0.0035725127 0.0074515506
000030 1c 6f c2 3a 90 1f b6 bc 19 8c 89 3a dc a1 52 3b
       0.0014834139 -0.022231847 0.0010494023 0.0032139933
000040 b4 81 57 3b a3 e0 a2 3c 24 e7 7a bc d4 7d bb bb
       0.0032883706 0.019882506 -0.015313897 -0.005721787
000050 00 85 50 3c 9b 34 85 bc 04 f4 5c 3c db 1c 6d ba
       0.012727022 -0.016260436 0.013485912 -0.00090451323
000060 a3 b3 7d bc 53 20 cd 3c 90 fa a2 b9 48 4a e8 bb
       -0.015484723 0.025039827 -0.00031085731 -0.007088933
000070 a6 cf 66 3c 6a 62 f1 bb 0f 37 22 3c 64 00 95 3b
       0.014087593 -0.007366468 0.009900822 0.0045471657
000080 5f 9e 4d 3c 99 e7 62 3b cb 6e dc 3b 71 2b 81 3b
       0.012549966 0.0034622906 0.0067270747 0.003941946
000090 db a3 91 3a 20 07 61 bc 6d ed da 3a 39 e6 b3 3c
       0.0011111455 -0.013734609 0.0016702838 0.021960365
0000a0 44 89 f7 ba 61 11 98 bc 17 d3 32 bb 18 43 49 bc
       -0.0018885513 -0.018562974 -0.0027286464 -0.012284063
0000b0 a6 9d 02 b9 83 55 ff 3c 36 58 c9 bb 77 23 c0 bb
       -0.00012456495 0.031168705 -0.0061445488 -0.0058636027
0000c0 72 b5 c7 bc 74 1d ca bc 97 79 65 bb 0e 12 05 3d
       -0.024378512 -0.024672247 -0.00350151 0.03248792
0000d0 f3 d9 14 3d 12 db 52 3c b5 dd 34 ba 39 75 92 bb
       0.036340665 0.012869613 -0.0006899492 -0.0044695404
0000e0 4a df 52 bb 4a 43 04 3a 7c 17 5c ba 50 8f 39 3c
       -0.0032176548 0.0005045427 -0.00083958334 0.011325672
0000f0 44 71 0e bc d3 95 b8 bb ec 8b af 3b 71 b7 27 3c
       -0.008693997 -0.005633095 0.005357256 0.010236607
000100 b1 de b0 39 99 be 1a bb eb e4 40 bc 2e fa 3b bc
       0.00033735254 -0.002361214 -0.011773328 -0.011473222
000110 7d c0 e1 bb 80 f7 b0 3b b2 77 38 bc 7a 43 72 3b
       -0.0068894015 0.005400598 -0.011259006 0.0036966489
000120 6d 00 9c bb 9c ee db bb 3e 6d 16 bb 96 83 82 3b
       -0.004760793 -0.006711794 -0.0022953297 0.0039829714
000130 55 a7 26 3a 01 ec 3d bc ea 44 06 3c c8 13 9e 3a
       0.0006357332 -0.011591912 0.008195141 0.0012060339
000140 23 71 90 3a d7 f9 2b 3c 3f f0 06 bc f4 65 86 bb
       0.0011020045 0.010496578 -0.00823599 -0.004101509
000150 b7 a4 59 3b e9 e6 d0 bb 35 5b db 3b 4a 2c 3c 3a
       0.003320975 -0.006375183 0.0066942223 0.00071782304
000160 7f d6 b5 bb 8c d3 5b 3c 3b 05 6d bb 60 d2 9e bb
       -0.0055492516 0.013417136 -0.0036166448 -0.004846856
000170 54 8b a9 3a 75 ce be ba 87 ea bd 3b 5e 91 b9 3a
       0.00129352 -0.0014557379 0.00579578 0.0014157703
000180 b3 24 18 3c ed 69 11 3b 3e 60 26 3b 25 9a cb 3a
       0.0092860935 0.002218838 0.0025386955 0.001553361
000190 b1 0b 89 3a 83 4f cd bb 7c b6 5c 3b 0d 7f 04 3c
       0.0010455755 -0.006265582 0.0033678105 0.008086932
0001a0 ff 42 6d ba 09 bb a0 bb 26 43 ca b9 e2 61 fe bb
       -0.0009050816 -0.004905109 -0.00038578472 -0.0077631334
0001b0 3d 1a 3b bb 0c de cc 3b 2d 1f 33 bb e7 36 0b bb
       -0.0028549575 0.006252056 -0.0027331815 -0.002124244
0001c0 8b 55 63 bc 55 56 32 bc bd 4d 45 ba e7 22 69 3c
       -0.0138753755 -0.010884841 -0.00075265375 0.014229513
0001d0 2b ce 74 3c a1 86 9d 3b 4d 0a 98 3a bf 65 80 bb
       0.014941732 0.004807309 0.001159975 -0.003918379
0001e0 5b 6b 96 39 24 fd f6 3a 48 f8 05 ba 2b a7 7b 3c
       0.00028690216 0.0018843752 -0.0005110544 0.01535968
0001f0 71 91 55 bb 33 fe 93 bb f8 cc 78 3b 30 72 05 3b
       -0.003258791 -0.004516387 0.0037963968 0.002036225
000200 17 52 9a b9 c4 4f fc ba fe fa 2c bb 41 df 6e bb
       -0.0002943433 -0.0019249846 -0.002639472 -0.0036448988
000210 25 c0 f1 ba 79 54 1e 3b dc 77 a8 bb 59 57 06 3b
       -0.0018444104 0.0024159236 -0.0051412415 0.002049884
000220 41 7a a9 ba 9c a7 54 bb d5 ad c9 b9 34 4b 81 3a
       -0.0012930111 -0.0032448536 -0.00038467222 0.0009864331
000230 6a 5f e4 b9 b3 d2 bd bb b0 29 fe 38 aa d1 43 3a
       -0.00043558638 -0.0057929396 0.00012119429 0.0007469902
000240 e4 bb b0 3a 17 bb 82 3b c0 17 7f bb 35 26 31 ba
       0.001348373 0.003989588 -0.0038924068 -0.00067577075
000250 e4 5b 2b 3b 9c 1c 40 bb ab 21 13 3b e6 37 3d ba
       0.00261473 -0.0029313928 0.0022450488 -0.00072181073
000260 6e 66 db ba b0 44 bc 3b ce 12 90 39 a2 34 54 ba
       -0.00167389 0.005745493 0.0002747983 -0.0008095001
000270 9a 0d 53 3b cd 03 f3 ba de 24 79 3a 25 3f e9 3a
       0.0032204152 -0.0018540561 0.000950409 0.0017795308
000280 5e 90 fb 3a 82 d8 a2 3a 25 94 ae 3a a2 d9 cc 3a
       0.0019192805 0.0012424143 0.0013319297 0.0015628824
000290 45 ec 3f ba df 65 1e bb 4d 56 15 ba 09 c4 ae 3a
       -0.00073212787 -0.0024169607 -0.0005696759 0.001333357
0002a0 40 99 60 ba b8 bf 89 bb 79 4c 8e b8 f6 9a 3d ba
       -0.0008567758 -0.004203763 -6.785332e-05 -0.0007232869
0002b0 13 a6 19 3a ef 94 d1 3b 6c 82 43 bb 42 1c 30 3a
       0.0005861234 0.006395928 -0.0029832376 0.0006718078
0002c0 e4 ee 88 bb f2 f6 9d bb ad aa 87 ba 12 30 e2 3b
       -0.0041788686 -0.004820698 -0.0010350548 0.006902703
0002d0 c5 77 0b 3c ec 09 8b 3b d2 58 c4 ba ed 14 45 b9
       0.008512442 0.004243126 -0.0014980084 -0.0001879518
0002e0 d6 23 da b9 98 fa bd 39 9d 64 30 b9 1e d5 a8 3a
       -0.000416069 0.00036235596 -0.0001682215 0.0012880897
0002f0 00 47 bc ba cf e8 75 ba 2c 45 a5 3a 94 ab 6b 3a
       -0.0014364421 -0.00093806995 0.0012609116 0.00089901057
000300 17 a5 c2 3a e3 8a 77 bb 06 0e 1c bb 86 dc 4e bb
       0.0014850226 -0.0037771992 -0.002381207 -0.0031564548
000310 7e 18 86 ba 70 6f 1c 3b 27 57 da bb ac 87 87 3b
       -0.0010230688 0.0023870133 -0.0066632214 0.0041360464
000320 21 f7 a2 ba ec d9 8c bb 81 b2 1f 38 88 f7 a4 3b
       -0.0012433269 -0.0042984392 3.80748e-05 0.005034391
000330 9d 0d da b9 0e 92 d6 bb 43 91 31 bb 8a 2c 5f 3a
       -0.00041590343 -0.006548173 -0.002709464 0.0008513412
000340 d7 47 b7 3a 4b 3c 91 3a 50 16 93 bb 78 9a 14 bb
       0.0013983202 0.0011080591 -0.004488744 -0.0022675078
000350 cb d7 49 3b 5f de 4a bb b0 1d 35 3b b5 53 90 ba
       0.0030798789 -0.0030955297 0.0027636103 -0.0011011275
000360 72 77 5e bb b9 98 b3 3b 7f 4c 89 3b fe 3f fb b9
       -0.0033945707 0.0054808524 0.0041900272 -0.0004792213
000370 66 83 cb 3b c4 f6 76 bb 91 7d e7 b9 6e 13 0c 3b
       0.0062107323 -0.0037683705 -0.00044153308 0.0021373886
000380 ae 7c e0 3a ac 5d 0b 3b bd 8e fa 3a cd 03 10 3b
       0.0017127001 0.002126555 0.0019116026 0.0021974922
000390 81 25 fa ba 3a c3 08 bb 70 ad 79 ba e9 a3 1e 3b
       -0.0019084663 -0.0020868317 -0.00095244404 0.0024206585
0003a0 39 f5 50 ba a0 5c c8 bb dd c4 53 b9 4d 72 a1 b9
       -0.00079711113 -0.0061145574 -0.00020195865 -0.00030793474
0003b0 c3 9a 12 3b c8 20 24 3c c8 be a3 bb db 19 1f 3a
       0.0022370077 0.010017581 -0.004997108 0.00060692214
0003c0 75 d1 be bb 60 be a8 bb 33 45 f3 ba 39 66 f4 3b
       -0.005823309 -0.0051496476 -0.0018560052 0.007458475
0003d0 b5 41 2b 3c ec 26 c3 3b d6 5c e3 39 83 0d 75 b9
       0.0104526775 0.0059555676 0.00043365982 -0.00023370054
0003e0 fe 7e e3 ba 77 92 0d 39 79 6f 41 bb 94 bc 88 bb
       -0.0017356572 0.0001350137 -0.0029515906 -0.004172871
0003f0 dc da 1f bb 4b ab 08 ba a7 83 17 3a d7 be 11 3b
       -0.0024391925 -0.0005213513 0.00057798106 0.0022238994

enc.0.att.k_proj.bias f4 [64]
000000 38 33 95 32 06 cd 78 b2 25 9b 4e b1 0d 53 98 31
       1.7369175e-08 -1.4482117e-08 -3.0065135e-09 4.433224e-09
000010 fd 28 2f b2 10 3b 49 32 6a f1 f6 31 b1 7e 51 32
       -1.019566e-08 1.1713169e-08 7.186988e-09 1.2194207e-08
000020 95 d1 17 b1 34 22 de 32 92 2b 13 31 c7 62 c9 33
       -2.2092526e-09 2.5859755e-08 2.1416082e-09 9.3777594e-08
000030 3d 00 07 32 7b 4c 6f b1 a2 95 e9 32 65 42 84 32
       7.858088e-09 -3.4822552e-09 2.7192815e-08 1.5397015e-08
000040 f1 8d 76 b1 20 8c 00 31 c0 fd 91 ae 73 54 0e b1
       -3.5878396e-09 1.8706103e-09 -6.6389116e-11 -2.0711723e-09
000050 0c 39 a0 2d 0e 8f 76 30 b6 37 a9 30 2b ea a1 af
       1.8215228e-11 8.969757e-10 1.2312202e-09 -2.9452116e-10
000060 74 68 fd af 63 22 77 af 09 81 be af cd 9f 11 b1
       -4.609465e-10 -2.2476736e-10 -3.4652484e-10 -2.1191113e-09
000070 58 8c 32 30 b0 a5 13 31 40 88 2e 30 98 a1 16 31
       6.4955463e-10 2.1485498e-09 6.3494454e-10 2.1919728e-09
000080 23 a9 a1 31 96 c1 82 30 e6 dd b2 af 32 3c 7e 30
       4.7049453e-09 9.513765e-10 -3.253568e-10 9.2490204e-10
000090 b6 fd 2b 30 a8 30 db 2e d8 eb bf b1 65 24 44 32
       6.256998e-10 9.96761e-11 -5.585644e-09 1.1416977e-08
0000a0 f8 d7 0f 2f 36 33 93 30 e7 f3 c1 b1 48 21 a6 b1
       1.3082502e-10 1.0710213e-09 -5.6447678e-09 -4.8350195e-09
0000b0 b3 2d 0d 32 4f bd 91 31 04 f8 90 b1 85 cf e3 b0
       8.217671e-09 4.2415773e-09 -4.2191477e-09 -1.6575404e-09
0000c0 e2 86 b4 b3 10 80 93 34 62 34 c8 33 fc 74 d1 33
       -8.406438e-08 2.7474061e-07 9.322754e-08 9.7536e-08
0000d0 9a 92 56 33 84 78 ab b3 a2 61 64 33 9d 09 2a 34
       4.995909e-08 -7.98473e-08 5.3174183e-08 1.5835981e-07
0000e0 8f aa 06 b4 b8 e2 a0 33 8a 93 f0 33 de f3 6c b1
       -1.2541771e-07 7.4918205e-08 1.1202708e-07 -3.4481142e-09
0000f0 93 e7 64 b4 04 46 8a b2 cb 5e ed 33 e4 31 de 33
       -2.1318401e-07 -1.6097154e-08 1.1053415e-07 1.03467556e-07

enc.0.att.v_proj.weight f4 [64, 64]
000000 e5 ef d2 bc 77 28 17 bc 2a 7d f0 bc 04 8f 47 bd
       -0.025749156 -0.009225956 -0.029356558 -0.048720375
000010 38 37 11 3a 00 7d 7c bc c3 df 6b bc 5b e1 fb bc
       0.0005539539 -0.015410662 -0.014396611 -0.030747106
000020 bb d4 ae bc 78 a0 46 bd 2e 71 7e bb 8b 26 84 3c
       -0.021341672 -0.04849288 -0.0038824785 0.01613166
000030 e4 fe 00 bd 5c 52 0f bc 8b 95 1d 3d 8b 48 c2 3c
       -0.031493083 -0.008747663 0.038472693 0.023716232
000040 63 20 3d bd 4a ed 66 bd fb f0 ec 3c 30 47 a0 bc
       -0.046173465 -0.05637864 0.028923502 -0.019565195
000050 ac bb 2f 3d 0d 5f 4c 3d fd 2c 85 bc 49 79 bf bc
       0.042903587 0.049895335 -0.016256804 -0.023373263
000060 c4 da 04 3c 8a 04 bd 3c ef 63 f5 bc a4 10 9b 3c
       0.008108798 0.023073453 -0.029954879 0.018928833
000070 90 a9 0d 3d fe fa c6 bb bc cf 11 3c 46 ec 95 bc
       0.034585536 -0.006072401 0.008899625 -0.01830114
000080 0f 94 d8 bb a0 e6 9f bc 7e a8 0b 3d 12 5c 95 3b
       -0.006609447 -0.01951915 0.034096234 0.004558095
000090 49 88 70 3c ab f1 c7 bb c7 5e 85 39 11 50 0f 3d
       0.01468093 -0.006101807 0.0002543835 0.034988467
0000a0 b1 af 89 bc 1d 91 f3 bc 3e 51 ea 3c 8e 9d 8f bb
       -0.016807409 -0.029732281 0.028603192 -0.0043827957
0000b0 26 df c5 bb 69 ea cd 3c ff 0c 1e bd d5 86 12 bd
       -0.0060385643 0.02513619 -0.038586613 -0.035773117
0000c0 a7 27 2d bd 32 a3 51 bb cd b5 d4 bc c4 d2 27 3d
       -0.042274144 -0.003198814 -0.025965596 0.040972486
0000d0 ca 73 98 3c f2 71 64 3d 14 e2 07 3b b1 5d 15 bd
       0.0186099 0.05577273 0.0020734118 -0.036466304
0000e0 d5 25 69 3c 2d 17 64 bb da dd 31 bd db 15 2b bc
       0.014230211 -0.0034803853 -0.043424465 -0.0104422225
0000f0 1c d7 ae 3b 28 17 76 3b fa 61 c2 bc a6 6b c2 3b
       0.0053357016 0.0037550423 -0.02372836 0.005933243
000100 82 79 92 b9 49 f3 92 3c 57 b5 91 3b 57 cb cc bc
       -0.0002793782 0.017938273 0.004446666 -0.024999304
000110 71 3e 05 3d 61 fc f1 3b 3a b9 5d 3b 44 24 2c bb
       0.032530252 0.0073848222 0.0033832327 -0.0026266733
000120 76 94 00 bb 1f e3 1c bd 53 80 e2 bc 52 56 c8 bc
       -0.001961974 -0.038302537 -0.02764908 -0.024455223
000130 09 42 d9 3b 06 f2 f9 3b 96 e5 57 3c c2 96 0e bc
       0.0066301865 0.0076277284 0.013177296 -0.008702936
000140 22 29 9d bc ea ac 38 3d a6 2a db 3a c9 6a 1c bd
       -0.019184653 0.04508678 0.0016721084 -0.038187776
000150 ef 97 d9 bb 15 19 98 3c 7f 7d a4 bc 7e 8a d2 bb
       -0.0066404263 0.018566648 -0.020079372 -0.006425201
000160 29 31 83 3c bb de 8a 3c c8 9f 13 bd 2d a7 be bc
       0.016014652 0.01695191 -0.03604105 -0.023273075
000170 04 0a cb 3b db 8f 42 3d e2 6a bb bb a0 01 cb 3c
       0.0061962623 0.047500473 -0.0057195285 0.024781048
000180 1e c0 42 bc 56 9b 14 3c 26 52 c3 3c f5 99 25 bb
       -0.011886625 0.009070238 0.023842882 -0.0025268767
000190 8c 52 96 3c 0c 94 3a 3d ab 54 27 bc f9 c2 31 bd
       0.018349908 0.045551345 -0.0102130575 -0.04339883
0001a0 b7 ca 22 bc 9a 75 b9 bc 02 27 ea bc 44 39 09 bc
       -0.009936026 -0.022639085 -0.028583053 -0.00837547
0001b0 af 82 b0 bc 05 f6 3e 3c 5a bb d3 3b 7f 4b 6f bc
       -0.02154669 0.011655335 0.006461543 -0.014605402
0001c0 26 51 1f bd c0 a5 e2 bb ad 48 ee bb cd ac 0d 3d
       -0.03889575 -0.0069167316 -0.007271847 0.034588624
0001d0 b2 38 6f bc 91 1b 9e 3b 95 9e f9 bc 67 9f c0 bc
       -0.01460092 0.0048250635 -0.030471126 -0.023513509
0001e0 de a0 98 3c fe 58 4c bc d1 c7 01 3d ff c9 2a 3d
       0.018631395 -0.012472389 0.0316847 0.041696545
0001f0 e3 7b db bb 26 30 e7 ba 29 76 fb 3b b7 72 02 bc
       -0.006698118 -0.0017638251 0.007673998 -0.00796192
000200 38 d8 96 3c 7a 61 e3 b9 59 a0 81 3c 83 7f 93 3c
       0.018413648 -0.0004336944 0.01582353 0.018005138
000210 25 0a 46 bd e0 d5 ba bc 7c b5 1f bc 85 f7 f7 bc
       -0.04834952 -0.022807062 -0.009747859 -0.030269394
000220 c8 c1 fe 3c c9 05 69 3c 3d c7 41 3d 82 e8 ae 3c
       0.031098261 0.014222571 0.04730915 0.021351103
000230 79 cc de bb cc 96 96 3b f1 2f 39 ba 29 af 86 3b
       -0.0067992774 0.004595613 -0.0007064334 0.004110236
000240 93 9c 8b 3b 8b c9 56 3d 6f 9b 9c bc 04 aa 28 bc
       0.0042606085 0.0524383 -0.019117085 -0.010294441
000250 7f 91 80 3c 0d fe f6 bc 98 5b d8 bb c6 2c db bb
       0.015694378 -0.030150438 -0.0066027157 -0.006688687
000260 f2 3a e4 bb fb 6c c1 bc 17 82 b1 bb 59 eb e6 ba
       -0.0069650346 -0.023611536 -0.0054171192 -0.0017617746
000270 ba 6e bf 3c 6c 2c e3 bc d2 89 ea bb 0a d1 9b bb
       0.023368228 -0.027731143 -0.0071575427 -0.004755144
000280 33 3d ea 3c 40 0e 72 3c d4 80 e8 bb 51 19 e3 bc
       0.028593635 0.014773905 -0.0070954356 -0.027722033
000290 71 a3 e3 3c 45 92 d5 bb fa 06 57 bc be 6c 07 3d
       0.027787896 -0.006517681 -0.013124222 0.03306269
0002a0 92 2d 98 3c 46 22 00 bc 39 f3 c7 3c 8d af 7e bc
       0.018576417 -0.007820671 0.02440797 -0.015544784
0002b0 96 5d 1a 3d c8 cb 35 3c 2a f0 06 bd 59 4c 25 bc
       0.037686907 0.0110959485 -0.032943882 -0.0100890035
0002c0 a7 0d 44 3b 5c 95 93 bc 16 76 30 3d 3d 77 a5 bc
       0.0029915364 -0.018015556 0.043081366 -0.020198459
0002d0 73 33 b2 3b d3 99 61 3c 91 d3 af 3c 53 b5 a1 bc
       0.005438262 0.013769585 0.021463187 -0.019739782
0002e0 a0 9a e5 3c 0d ec 6f 3c 0b eb e3 3b 04 8c e5 3b
       0.028027833 0.014643681 0.0069555095 0.0070052166
0002f0 06 e0 91 bb b6 05 ad 3c 8d 50 83 3b 8d f5 9f 3b
       -0.0044517545 0.021120887 0.004007405 0.004881567
000300 90 c9 01 bc db 5c 45 3c 7a 7c 3e 3c 30 c3 2a bd
       -0.007921591 0.012046064 0.011626357 -0.04169005
000310 40 29 4a bd 33 13 28 bc f4 d6 a3 3c 65 a1 42 bd
       -0.049355745 -0.010258484 0.019999959 -0.0475172
000320 eb b3 49 bc 85 0e 13 bd da 15 28 bd 41 4f 14 3d
       -0.012310962 -0.03590252 -0.041036464 0.036208395
000330 e9 4e fe bc 09 e3 fc bb 22 7a 37 3c 60 cc 97 bc
       -0.031043487 -0.0077174944 0.011198552 -0.01853007
000340 05 8b e6 bc e6 3d 7c 3c 3e 17 ca 3c 23 4f b8 3c
       -0.028142462 0.015395617 0.024669286 0.022498673
000350 51 1d c9 bc f0 87 a5 3d e6 bf a0 3c f9 02 a7 3c
       -0.024550112 0.08082569 0.019622754 0.02038716
000360 3d c3 c3 3c 7e da 48 bd ee 65 11 3c 8d 7b e8 3c
       0.023896808 -0.049036495 0.0088744 0.028379226
000370 b9 ed b0 bc 1b 0d 86 3b 8c 8c 4d bd b4 b2 9f bc
       -0.02159773 0.0040909178 -0.050182864 -0.019494392
000380 e0 49 0f bd 7e bc 1b 3d 86 5c 4c bb 12 aa 9b bc
       -0.034982562 0.038021557 -0.0031183078 -0.019001994
000390 93 20 4b bd 01 39 7f bc fa c3 17 bc 91 c2 0b 3c
       -0.049591612 -0.015577556 -0.009263033 0.008530275
0003a0 9a 64 7b 3b c2 aa af 3c b0 6a 75 3d 1c 5c 5d 39
       0.0038359524 0.021443728 0.0599162 0.00021110516
0003b0 5f 21 cd bb 05 8b b9 bc a5 8a 89 bd d1 f0 5c 3c
       -0.0062600817 -0.022649297 -0.067158975 0.0134851495
0003c0 6d 2a 4c 3c 57 c1 fc bb 14 e3 69 bd 6f 01 ec 3b
       0.012461287 -0.0077134776 -0.057101324 0.0072023193
0003d0 7b 5e ec bc 3d cd 17 bd b6 02 48 bd 13 6a 0f 3c
       -0.028853646 -0.037060965 -0.04883071 0.008753317
0003e0 09 93 2e bc af 7f 5c 3c 93 a4 b0 3c 29 4d 8c 3c
       -0.010655173 0.0134581765 0.02156285 0.017126637
0003f0 08 50 db 3c 8e 4b 8a 3c 56 93 b6 bc 11 a3 c3 bb
       0.02677156 0.01688173 -0.022287052 -0.0059703668

enc.0.att.v_proj.bias f4 [64]
000000 fb a8 a5 3d 09 c7 46 3d a3 10 43 3d fc 65 5c bd
       0.08088871 0.04852966 0.047623288 -0.053808197
000010 e7 01 0e bd dd 02 6e 3d cf 90 ad bd 3c 63 11 3d
       -0.034669783 0.0581082 -0.08474886 0.035495028
000020 a0 59 fc bc a5 56 dd 3c 27 b3 7d bc 1a 67 48 bd
       -0.030804455 0.027018854 -0.015484608 -0.04892645
000030 9d ac 3b bd ee c4 93 3d 94 ee 25 bd 2d ff d4 bc
       -0.045818914 0.07215296 -0.04051073 -0.026000584
000040 71 96 86 bd 2d de 89 3d 8e 26 d8 3d 2f c0 07 bd
       -0.06571663 0.0673183 0.10554229 -0.033142265
000050 a9 c3 eb bb 78 48 0c bd 99 df 1b bd 43 8d 77 bd
       -0.0071949554 -0.0342488 -0.038055036 -0.060437452
000060 06 97 bf bb c1 fc 0a 3d 12 f7 26 bd 18 57 6f 3d
       -0.005846861 0.03393245 -0.04076297 0.05843267
000070 92 c1 f5 bb 48 cb 7c bd 7e 8c 82 bd df 12 47 3d
       -0.007499882 -0.0617173 -0.06374453 0.04860198
000080 71 e0 f8 3b fe c9 19 3d c6 96 74 3c f8 64 9f 3d
       0.007595115 0.03754615 0.014928525 0.0778293
000090 6b 50 1c bd eb bc a2 3b e5 ff c0 3c 51 10 0f bd
       -0.03816263 0.0049663684 0.02355952 -0.03492767
0000a0 56 0d 9d bd f0 f2 cc bc e1 41 50 bb f5 87 30 bd
       -0.07668559 -0.025018185 -0.0031777548 -0.04309841
0000b0 5d f6 21 bd 9e cf ed 3c 64 59 c7 3b 0c e3 fe bc
       -0.03954159 0.029029664 0.0060836542 -0.031114124
0000c0 5b cc cb bd 99 18 e3 3c 6f 56 52 bc 85 f5 0a bc
       -0.09951087 0.02772169 -0.01283799 -0.008481388
0000d0 26 18 b9 3d 92 47 23 3d 0f 6a 62 3d 49 60 09 be
       0.09037809 0.039863177 0.055276927 -0.13415636
0000e0 03 0f bf 3d 53 06 26 bc 78 50 82 3d c8 99 27 3c
       0.09329035 -0.010133344 0.063630044 0.010229535
0000f0 7d 48 26 bc dd fb 91 bd bf 8b 34 3d 68 f6 5d 3d
       -0.0101491185 -0.07128117 0.044078585 0.05419007
