mnist_transformer_model.pth (torch, 914790 bytes, 116 tensors)

cls f4 [1, 1, 64]
000000 51 89 c9 3f 60 2e 93 3f b6 6c 32 3f 34 d1 dd bf
       1.5745031 1.1498528 0.6969713 -1.7329469
000010 4f f2 f9 3e 41 29 70 bf 0c 23 8f bb fe eb a7 bf
       0.4881768 -0.9381295 -0.0043681916 -1.3118894
000020 47 aa 0d bf d9 f8 a7 3f 3e a9 8a be 08 6a 8f bf
       -0.5533795 1.3122817 -0.27082247 -1.1204233
000030 44 42 03 bf 68 43 d1 be cc 4a 09 bf 90 a8 0b 3f
       -0.5127299 -0.4087174 -0.53629756 0.5455408
000040 c1 2c a6 3f df 23 06 be 0a 21 af be 0b 32 ad 3e
       1.2982408 -0.13099621 -0.34204894 0.33827242
000050 e4 18 06 bf c7 89 49 3f 7c c0 18 3f 19 3d ab 3f
       -0.5238173 0.78725857 0.5966871 1.337802
000060 df c9 7b 3f 13 dc 7a 3f d1 c3 c7 3e d2 80 83 3f
       0.98354906 0.97992057 0.39016584 1.0273688
000070 a7 f2 22 be fc 4b 1e 3d 23 0d 22 be 7e aa 20 3f
       -0.15912877 0.038646683 -0.15825324 0.6276015
000080 2e b2 89 bf 0b 40 27 bf a4 cd 09 be 8d 26 b2 3f
       -1.0757501 -0.65332097 -0.13457352 1.3918015
000090 a9 bb 69 3e d7 cc 94 be 59 8e 50 3e 99 1a 0e bf
       0.22825493 -0.2906253 0.20366801 -0.55509335
0000a0 2b c8 9d bf 0f 29 3c 3f f6 7e 25 bf 44 43 ea be
       -1.2326711 0.7350015 -0.6464685 -0.45754445
0000b0 8d a0 7c bf 97 77 e1 3f 7b c6 6b bf 1f 8d a7 be
       -0.9868248 1.7614621 -0.9209973 -0.32724854
0000c0 00 52 24 bf 70 57 ec be 50 f1 2e 3d d8 82 b0 3e
       -0.6418762 -0.4616046 0.042710602 0.34474826
0000d0 03 7a b9 be cd b8 6d 3f 5f 13 17 bf 74 aa 02 bf
       -0.362259 0.9286011 -0.5901393 -0.5104134
0000e0 f9 9d 8b bf 93 23 b7 3c 56 0c dc bc 5f 3c e4 3e
       -1.0907584 0.02235583 -0.026861351 0.4457731
0000f0 be 40 56 bd ed 28 be 3f 28 8c 6a bf 91 e7 89 3f
       -0.052307837 1.485624 -0.9162011 1.0773793

emb.weight f4 [64, 196]
000000 24 15 23 3d 0e 00 2c bd c0 72 44 3d 59 bc 49 bc
       0.039815083 -0.04199224 0.047960997 -0.012312972
000010 95 09 13 3c 49 7e 44 3b bb ba b6 3d 97 9c 54 3d
       0.0089744525 0.0029982498 0.08922335 0.05190715
000020 a5 43 d8 3d 71 3d de bb c3 42 bd bc 5e 0f ed bc
       0.10559777 -0.0067822267 -0.023103124 -0.028937992
000030 b0 f9 a2 bc 02 10 3e 3d 12 8c 18 3d fe 4b 24 3d
       -0.01989445 0.046401985 0.037242956 0.040111534
000040 e1 33 e7 bc 18 51 1c bd 97 08 2d 3d 7e ae d8 bb
       -0.02822298 -0.038163275 0.04224452 -0.006612598
000050 26 1a 73 3d 79 fb b2 3b ed 67 6b 3d 3b 86 c4 bc
       0.05935111 0.005462107 0.05747216 -0.023989787
000060 a6 8e 8b bc 75 ca bb 3c 72 8c 00 3d 1f 12 1d 3c
       -0.017035794 0.022923687 0.03138394 0.00958684
000070 e7 4a 87 3d ba 57 2c 3d 68 63 37 bd 5b 5e 1a bd
       0.06606083 0.04207585 -0.044772536 -0.03768764
000080 3e 4d 57 3d 2f 5f ae bc d4 62 64 bc db 78 6a bd
       0.0525639 -0.021285621 -0.013939578 -0.057244163
000090 bd b8 4d bd f5 43 d1 3b 1f 5d 0f bd fd 14 83 bd
       -0.05022501 0.006386275 -0.035000917 -0.064004876
0000a0 07 27 44 3c fd 7b 8a bc 8c e8 0c bd 5e 2a 0f bd
       0.0119721955 -0.016904825 -0.03440146 -0.034952514
0000b0 6c fb 72 bd c4 1d 40 bd d7 f4 36 3d af dc de bb
       -0.059321806 -0.046903387 0.04466709 -0.00680121
0000c0 65 c6 85 3c 36 60 9c bd 92 16 ac bd b7 f3 9b bd
       0.016329953 -0.07635538 -0.084027424 -0.07614844
0000d0 fd f9 11 bd 3f 2a a4 bd d9 a2 08 bd 05 2d 08 bd
       -0.035638798 -0.0801587 -0.03335843 -0.03324606
0000e0 9e 95 03 3d 35 e1 8c bb 3b 72 c0 3a f1 7d ee bc
       0.032125108 -0.0042993077 0.0014682481 -0.029112788
0000f0 af ab 41 bd 92 8d 48 bd f8 96 e3 bc a6 f7 72 bd
       -0.04728287 -0.048963137 -0.027781948 -0.059318207
000100 2b f3 ec 3c 08 dc 1b bd db ff 1c 3d 8a 0f 96 3c
       0.028924545 -0.038051635 0.03832994 0.018317956
000110 e0 de 77 bd 0b ad 91 3c 75 c6 8c 3c d8 34 e6 38
       -0.060515285 0.017782709 0.017184475 0.000109770976
000120 7f 14 19 bd 4a 5e 6a bd 24 16 90 3c b8 55 e2 bc
       -0.037373062 -0.057218827 0.017588682 -0.027628765
000130 cb 7a db 3c 7b 40 42 bd e6 70 49 3d 35 06 38 bd
       0.02679195 -0.047424775 0.049179934 -0.044927794
000140 5c a8 df ba 62 6b 14 3d 3a be 55 3c 46 78 71 3c
       -0.0017063725 0.03623522 0.013045842 0.014738148
000150 d3 47 a4 3d 86 c2 47 bd 47 5d ba 3c d4 cd 07 bc
       0.08021512 -0.048769496 0.022749556 -0.008288819
000160 05 f9 17 3c 53 f7 40 bd d9 c3 98 3d df 81 d9 bc
       0.0092756795 -0.047110867 0.0745923 -0.026551185
000170 fa 20 89 3d 8d d6 48 3d 62 3a 37 3d c8 b7 61 bc
       0.06695743 0.049032737 0.044733413 -0.013776727
000180 66 b3 45 3d 19 b5 83 3b 78 6c 8c 3c fd cc 86 bd
       0.04826679 0.0040193913 0.017141566 -0.06582067
000190 c2 bd 02 3d 27 ae bc 3c 8f 8c 5a 3c b2 f2 99 3d
       0.03191925 0.023032261 0.013339176 0.075169936
0001a0 06 40 3f 3d 12 9a 4b bb 22 bd a6 bc 98 d8 7e bb
       0.046691917 -0.0031067175 -0.020353857 -0.0038886424
0001b0 bd ac cd 3c b8 59 93 bc 11 17 3b bd 05 8d af bc
       0.025106782 -0.017987117 -0.045676295 -0.021429548
0001c0 46 7b 82 bd d0 64 14 3b d5 af 52 3d b7 1e b2 bc
       -0.06371169 0.0022643097 0.051437218 -0.021743162
0001d0 b6 0b a6 3d 42 94 91 3d cc 11 13 3d 28 38 26 3c
       0.081077024 0.07108356 0.035905644 0.010145225
0001e0 c7 41 30 3d f5 e3 1f 3d 8f 74 be 3c ce 9a be bb
       0.04303148 0.039035756 0.023248939 -0.005816794
0001f0 0a 71 bd bc 51 9e 94 3a a4 65 5c bd 40 17 6f bd
       -0.02312519 0.0011338686 -0.05380787 -0.058371782
000200 89 02 32 3d 9b 54 8a 3d 83 05 fc 3c 63 1b 83 3c
       0.04345945 0.067544185 0.030764347 0.01600427
000210 f8 3d 60 3c 38 6f 25 3c ab c8 fd 3c 2a 96 3f 3d
       0.0136866495 0.010097317 0.030979475 0.046774067
000220 9f 08 b7 bc 78 50 6d bc 39 4b 36 3d 53 37 0e 3c
       -0.022342978 -0.014484517 0.04450533 0.0086801825
000230 6e 84 fa bc e4 b8 32 bd 60 cd 44 bd f3 27 ab bd
       -0.030580726 -0.043633357 -0.048047423 -0.08357229
000240 d7 39 3b bd 7e 64 32 ba 93 9a 0f 3c d8 2e 43 bc
       -0.045709457 -0.00068051356 0.008764881 -0.011913024
000250 e2 bc 9e bd 6c 70 74 bd 44 3d 04 bd 5a da 98 3c
       -0.0775087 -0.059677526 -0.03228499 0.018658806
000260 f9 f4 0b bd 41 eb 87 bd 27 2f cb 3c 31 79 c0 bb
       -0.03416917 -0.06636668 0.024802757 -0.005873822
000270 2e 6d 5e bd b3 a3 3e 3c a6 e0 7e bd b4 9e 8b bd
       -0.05430334 0.011635709 -0.06222596 -0.068173796
000280 0d f4 00 be 4c fb ab bc 9c c8 e7 bc 99 fc 36 bd
       -0.12593098 -0.020993851 -0.0282939 -0.04467449
000290 be 95 cd bd 78 3e dc bd 66 61 9b bd 79 9d 73 bb
       -0.10038327 -0.107541025 -0.07586937 -0.0037172718
0002a0 bd aa 4a 3d 3b b3 96 3d 3b 80 a4 3c db 44 a1 3c
       0.049479235 0.07358404 0.020080676 0.019686153
0002b0 06 98 0f 3a 9a de a9 bd bf ef cb bd 8f ce db bd
       0.00054776703 -0.08294411 -0.09957837 -0.10732757
0002c0 c7 fc a1 bc 19 be 9b bd 96 6b 06 bc de ee a7 bc
       -0.019773854 -0.076046176 -0.008204361 -0.020499643
0002d0 37 87 ac 3c 9d 22 74 bd 15 1e b0 bc c7 9d 9c 3c
       0.02106057 -0.059603322 -0.02149872 0.019118203
0002e0 f9 08 34 bd 90 cc 58 3d b0 99 34 bb 81 23 63 bd
       -0.04395387 0.05292946 -0.0027557425 -0.05545378
0002f0 6f ec f4 bc 5f 89 75 bc f1 54 ab 3c 96 1f 45 bc
       -0.029897897 -0.014986365 0.020914527 -0.012031456
000300 22 65 b9 3d 6d 6e 2e bc 9e a3 7f 3d 8e 48 46 3d
       0.09052493 -0.010646445 0.062411897 0.048409037
000310 19 41 7b 3d b6 48 7a bd 9e 17 fa 3c fa cb ba bc
       0.06134138 -0.0611045 0.03052884 -0.022802342
000320 18 09 e8 3c 22 7a 33 3d dc d0 15 bc 27 c3 9e 3c
       0.028324649 0.043817647 -0.009144034 0.019380165
000330 18 f9 91 3c 41 d4 d5 bc 45 95 03 3d e7 5b 93 bd
       0.017818972 -0.026102187 0.032124776 -0.07195263
000340 83 3f 20 3d 53 3e 90 3d 11 84 6d 3d ff a3 13 bd
       0.03912307 0.070431374 0.057987276 -0.03604507
000350 8c fc 60 bd f1 b8 b7 3c b2 d6 c4 3c a4 6d c8 bd
       -0.054928347 0.022427054 0.024028156 -0.09786537
000360 c8 3f cc bc a0 b6 83 bc 5b d0 07 3d 58 98 0c 3c
       -0.024932757 -0.016078293 0.033157688 0.008581243
000370 a2 f3 0c 3b 60 20 be 3b 0f ef 53 bd 04 40 87 3d
       0.002150752 0.0058021992 -0.051741656 0.06604007
000380 dd 87 88 3d 5f 97 ca bc a9 fd 6d bc 49 69 bf bc
       0.06666539 -0.024730382 -0.014525809 -0.023365634
000390 cb 01 8b bd 66 e9 ac bd 13 3d 44 bb a7 ad 3d bd
       -0.06787451 -0.08442955 -0.002994363 -0.046308186
0003a0 2e c4 37 bd 9a 23 d1 3b 1d 9e c2 3b 22 f2 7f 3c
       -0.044864826 0.006382418 0.0059392587 0.015621694
0003b0 ac 7a 4a 3c 6e 30 3c 3c 96 cb 43 3b 17 7f 0e bd
       0.012358349 0.011486156 0.0029875985 -0.03478917
0003c0 23 c3 a0 bd e4 0d 3c 3d 1b bf 1a bd 97 dc b3 bb
       -0.078497194 0.045911685 -0.03777991 -0.005488943
0003d0 b3 ff 70 bd dd 3b 37 bd 1c e4 dc 3b 6b bd ae bc
       -0.058837604 -0.044734824 0.00674106 -0.021330556
0003e0 71 82 91 bd 37 14 c6 3b 13 64 2b 3d 00 b9 3b 3d
       -0.07104958 0.0060448903 0.041843485 0.045830727
0003f0 76 94 9e 3d 03 7e 8c 3d bf ac 24 bd 6c 97 bf 3b
       0.077431604 0.06859972 -0.040203806 0.0058469083

emb.bias f4 [64]
000000 99 52 1f 3d 4f 6f e3 3c 92 77 af bb 21 33 90 bd
       0.03889713 0.027763037 -0.00535483 -0.07041002
000010 a7 39 cb bc c3 2c b8 39 59 cf 91 bd cd 62 3b 3d
       -0.024807764 0.00035128565 -0.071196266 0.04574852
000020 b1 58 32 bc f4 53 49 3d 12 a2 80 bd 2c 56 01 bd
       -0.0108854035 0.04915233 -0.062809125 -0.03157632
000030 16 f9 8b 3c 6e 7f 26 bb 24 17 3b bd fe 69 63 3d
       0.017086547 -0.0025405544 -0.045676365 0.055521004
000040 88 84 e7 3c b5 ee 2c 3c 45 47 74 3d 1c 39 8a bd
       0.028261438 0.010554959 0.05963828 -0.06749174
000050 6f 6a 5f bd 54 c3 82 3c ef ae 90 3d a4 c4 38 3d
       -0.054544862 0.01596228 0.07064616 0.045109406
000060 a7 c9 10 bd dc 7a 75 3d c4 b0 16 3d 62 8b 5e 3b
       -0.03534856 0.05993162 0.03678967 0.003395759
000070 0a f1 52 3d cf 4a 90 3c ba e3 1f 3b 79 a4 01 bc
       0.051499404 0.017613797 0.002439721 -0.0079127485
000080 25 bc 1a bd 8a 2d 14 bd 07 6b 4d bc 1a 3b 5e bd
       -0.037777085 -0.036176242 -0.012537724 -0.054255582
000090 49 8b 37 3d cc 3f ca 3b e1 47 8b bd 2a 35 48 bd
       0.044810567 0.006172156 -0.06800819 -0.048878826
0000a0 1e 49 3c 3d af c3 08 bd e0 59 82 3a 00 7c 2f bd
       0.045968167 -0.033389743 0.0009944998 -0.042842865
0000b0 9b 7a 7e bc 82 27 01 3d e0 17 c9 3b ff 44 12 3d
       -0.015532161 0.03153182 0.0061368793 0.03571033
0000c0 f1 fb 58 3a 33 78 90 bd d5 75 ad 3c 14 2f 61 3d
       0.0008277288 -0.07054176 0.02117435 0.054976538
0000d0 51 62 db 3c 81 c3 32 ba 75 52 09 3b f9 b1 94 3d
       0.02678028 -0.00068192935 0.002095369 0.07260508
0000e0 14 5a b9 3c b6 8e 09 bc 5b 92 ad bc 5d 0c 4c 3d
       0.02262596 -0.008395841 -0.021187952 0.049816478
0000f0 2a 2c 18 bd 50 00 53 bd 67 8e fb 3c 2d 48 5d bd
       -0.037151493 -0.05151397 0.030707551 -0.05402391

pos.weight f4 [17, 64]
000000 69 36 fa bd e4 c9 83 3e 95 d5 e1 3e 42 56 ca 3e
       -0.12217409 0.25739968 0.44108263 0.39518934
000010 4b 58 8b bf e6 84 c3 be 77 df ff 3e 84 92 99 bd
       -1.088632 -0.3818733 0.49975178 -0.07498649
000020 3f 1d 43 3e 82 28 f0 bd 0f 5a 79 3f fa b9 dc 3d
       0.19054125 -0.11726476 0.97403044 0.1077766
000030 28 12 c9 bf 16 b3 40 bf 1a 02 76 3e ab d7 e8 3e
       -1.5708666 -0.75273263 0.24024239 0.45477042
000040 a6 3d 90 bf 34 9d 89 be 79 b0 c4 be 5c 6a 95 3e
       -1.1268814 -0.2687775 -0.38415888 0.29182708
000050 83 af 05 3e 6d d9 ae 3d 8d a1 5a bf ce e9 6e bf
       0.13055234 0.085375644 -0.85402757 -0.9332551
000060 0d 22 bd bf 3d 89 f3 be b4 97 93 bf eb 28 f2 be
       -1.4776016 -0.47565642 -1.1530671 -0.47296843
000070 3b 48 23 be d7 a3 85 bd 52 f4 b2 bf 0a 2e 12 bf
       -0.15945522 -0.065253906 -1.3980811 -0.571015
000080 92 e3 3e bf 79 3a a7 be 19 60 ad be 40 31 76 bf
       -0.74565995 -0.326618 -0.3386238 -0.961689
000090 dd 70 90 3f 04 cb ae be 19 12 e0 bf 2d a4 7a bf
       1.1284443 -0.34139264 -1.7505523 -0.9790676
0000a0 92 da 2b 3f f9 92 6c 3c bc 11 9c 3f 13 95 f2 3e
       0.67130387 0.014439338 1.2192912 0.4737936
0000b0 e1 ee 07 bf 7d f4 1a bf 39 f2 00 3f d3 07 e3 bd
       -0.53098875 -0.6052931 0.503696 -0.11085477
0000c0 c6 e3 51 bf 0d 8b 86 3d d1 14 f8 3e 36 2e ff 3f
       -0.8198818 0.065694906 0.48453382 1.9935977
0000d0 df 72 e1 be 62 6d f1 3e 5b 8b 11 3f 0b ee 87 3e
       -0.44032952 0.47153765 0.56853265 0.265488
0000e0 06 81 14 bf dc c9 f2 be 70 41 ce 3d 76 e3 38 3d
       -0.58009374 -0.4741963 0.10071075 0.0451388
0000f0 4a 63 43 3f e3 53 76 bf 20 65 3d 3e 89 95 52 be
       0.7632338 -0.9622175 0.18495607 -0.20564856
000100 d0 d7 0e c0 e1 a7 a2 3d 6f ac 85 bf 91 be 5d bf
       -2.2319221 0.079421766 -1.0443248 -0.86618906
000110 a3 df 08 c0 47 6b 67 bf 6e db 81 3f a6 11 be 3e
       -2.1386497 -0.9039807 1.014509 0.3712284
000120 87 3a 14 3d 40 28 5c 3f 60 76 17 be b4 59 c2 3e
       0.03618863 0.85998917 -0.1479125 0.37959063
000130 cc 8e b7 bf 08 1b 1d bf e1 c7 15 3f ad bd 25 bf
       -1.4340453 -0.6136937 0.58508116 -0.6474255
000140 22 e8 0a be 27 7a d6 bf 80 bd 0c bf 3d a4 e2 be
       -0.13565114 -1.6756028 -0.54976654 -0.4426593
000150 89 57 85 3f de 11 37 be 95 1e 7e 3f 02 04 a0 be
       1.0417339 -0.1787791 0.99265414 -0.31253058
000160 f4 86 c1 bf 80 6a cf 3e c2 9f d2 bf b8 47 8c bf
       -1.511931 0.4051094 -1.6455004 -1.0959387
000170 3c 2f 88 3f ec 25 b2 3f 09 04 9a 3f 5f 5d c7 3e
       1.0639415 1.3917823 1.2032481 0.38938424
000180 fd b3 6d bf fb 48 ad be a6 b7 a7 bf ba a7 ab bb
       -0.92852765 -0.33844742 -1.310292 -0.0052385004
000190 ee 0f 9a bf 91 9c d8 3f 87 51 a6 3e 62 b7 3b 3e
       -1.2036111 1.692278 0.32484075 0.18331674
0001a0 ff a2 61 bf fa 72 97 3f 0b 37 a7 bf 99 17 fe 3e
       -0.8813934 1.1831963 -1.3063673 0.4962738
0001b0 8c a2 e8 be 59 b0 5a 3f f1 ad 87 be 47 35 b7 3e
       -0.45436513 0.85425335 -0.26499894 0.35782835
0001c0 33 f2 49 be be 35 bc be e4 7a 2d bf ff d1 03 c0
       -0.19721298 -0.36759752 -0.6776564 -2.0596921
0001d0 67 d7 a6 3e 14 84 80 3e 89 ef b2 be 6f c0 f4 bd
       0.32586214 0.25100768 -0.34948376 -0.11950766
0001e0 eb 6e 2c bd 2a dc f9 3e 61 a2 43 3f de 15 7e bf
       -0.042097967 0.48800784 0.76419646 -0.99252117
0001f0 83 e2 89 bf ea c9 4f 3f 5a 23 9b 3e 24 e5 b0 bf
       -1.0772251 0.8116747 0.3030041 -1.3819928
000200 a6 35 39 be 0a 7a 5f 3f 00 c1 ee bf 9b 57 1a 3f
       -0.18086872 0.8729559 -1.8652649 0.60289925
000210 17 ed 74 bd 92 85 1e 3f 71 1b 87 bf 74 9b b4 3f
       -0.05979642 0.6192256 -1.055525 1.410994
000220 a2 b6 d4 3e 94 6a 8f 3e c5 2f 47 3e 7d 95 c6 bf
       0.41545588 0.28011 0.19451816 -1.551437
000230 0d 26 b9 3e 48 c0 0d 3e 93 66 6f be c6 60 3f bf
       0.36161843 0.1384288 -0.23378973 -0.7475704
000240 e8 69 8d bd 0f 7f 95 bf db bb 9b bf 80 4a 12 3f
       -0.06904966 -1.16794 -1.2166704 0.5714493
000250 08 a7 12 3f 48 81 fd be a7 fa 74 3c 84 11 9b 3e
       0.5728612 -0.49512696 0.014952338 0.302868
000260 cd 0e b7 3e c9 0f b5 bd bf ba 81 3f 72 a6 60 3f
       0.3575348 -0.088409014 1.0135115 0.87753975
000270 55 f8 f6 bc 19 ae de be 5f 24 fd be 62 c4 88 bf
       -0.03014771 -0.434922 -0.4944181 -1.0684931
000280 d0 af aa 3f bb 04 a8 3e 7f f9 18 3f 35 38 ba 3e
       1.3334904 0.3281611 0.597557 0.36371008
000290 f8 a6 5e 3e b2 14 b2 3e 4a a8 da 3e 24 51 12 3f
       0.21743381 0.34781414 0.4270652 0.5715506
0002a0 ec 8c 40 3e 19 48 51 3f 6e 9e fb 3e 1c e2 06 3f
       0.18803757 0.8175064 0.4914431 0.52688766
0002b0 49 8f 19 be 6a b1 80 3e f3 c9 08 3f 74 77 14 40
       -0.14996065 0.25135356 0.5343315 2.3197908
0002c0 4d 04 e3 be 26 d5 91 3e 42 ba 1f 3c 25 29 1e bf
       -0.4433922 0.28482932 0.009748997 -0.6178153
0002d0 99 56 cb be 0d 98 ad 3e 1e 80 43 3f e5 4b be bf
       -0.39714506 0.33905068 0.76367366 -1.4866911
0002e0 cb c2 8c bf 7f 51 3e 3f c0 a7 fa 3e 75 2e e0 3f
       -1.0996946 0.74343103 0.48956108 1.7514178
0002f0 7b b3 80 bf 9e 6f 86 3e df a5 1f be a3 29 d8 be
       -1.0054773 0.26257032 -0.15590619 -0.42219266
000300 dc 52 af bf e2 2c 91 3f 9d 08 9d bf f6 68 b8 be
       -1.3697162 1.1341822 -1.2268254 -0.3601758
000310 70 28 24 be 6f 1d 16 3e 77 27 e4 bf b3 2b e4 3d
       -0.1603105 0.14659666 -1.7824544 0.111411475
000320 c0 c6 15 3d 19 4a d8 be 16 fd a8 3f 69 8e 27 3f
       0.036566496 -0.42244032 1.3202236 0.65451676
000330 c6 70 2e 3f a6 9e 04 bf 91 1f 23 bf 4e 3e 78 3f
       0.6814083 -0.5180458 -0.6372004 0.9697007
000340 1d 2b a1 bf d7 6e 54 3f b3 d5 4c 3f f5 00 40 3f
       -1.2591282 0.8298163 0.8001358 0.7500146
000350 6b f9 98 3e be d3 61 be 68 66 37 3f 2e e8 2d bf
       0.2987779 -0.2205343 0.71640635 -0.67932403
000360 0b 05 88 3f a8 df 77 bf 60 1a 03 3e 78 ee 60 bf
       1.0626539 -0.9682565 0.1280303 -0.87863874
000370 34 35 22 3d b0 fc d0 3e a2 0c 29 be ff 8b a1 3f
       0.03960152 0.40817785 -0.16508725 1.2620848
000380 d7 83 9e 3e 84 68 a2 bf 6f ea 20 3f 79 12 8c 3e
       0.3095996 -1.2688146 0.6285772 0.27357844
000390 e3 60 1b 3f cc dc af 3b 42 e4 03 3f 4a 18 11 3f
       0.6069471 0.005366897 0.5152017 0.5667769
0003a0 92 d6 12 3f 0b 2f 47 3f a1 77 ab bb ab 09 8e bf
       0.5735866 0.77806157 -0.0052327667 -1.10967
0003b0 a7 8c dc 3e 6d 0e ac bf 92 dc 18 be 08 e7 54 bd
       0.4307606 -1.3441902 -0.14927891 -0.05197814
0003c0 f0 04 5f 3f 3a 2f 89 3f fe aa 90 bf b5 cb 00 40
       0.8711691 1.0717537 -1.1302183 2.0124333
0003d0 35 5c 50 3f 14 e7 69 bd 89 bf b5 bf 85 cb 15 bf
       0.81390697 -0.05710514 -1.4199077 -0.5851367
0003e0 72 a3 22 bf f0 9a 0e bf f6 fa ab bf f1 47 ab 3f
       -0.6353065 -0.55705166 -1.3435962 1.338133
0003f0 c7 14 16 bf dc 6d 5f bf 1e 60 a3 bf df 3d f1 be
       -0.58625454 -0.8727701 -1.2763708 -0.47117516

enc.0.att.q_proj.weight f4 [64, 64]
000000 90 45 0e bd 86 aa 16 3c 3e 86 ba 3c f7 9a 15 bd
       -0.03473431 0.009195929 0.02276909 -0.03652474
000010 41 03 87 bc a9 a7 4f bd 78 6e 2f bd f0 e1 23 3d
       -0.016481044 -0.050697003 -0.04282996 0.040010393
000020 f8 21 97 3b 4d d4 6b bd 60 30 a3 3c 3d 44 4f 3d
       0.0046122037 -0.057575513 0.019920528 0.050602186
000030 6a 30 a4 3d c3 ee 2f bd 25 90 18 3d 3c 19 e9 3b
       0.08017047 -0.04295231 0.037246842 0.007113604
000040 2f dd 22 bd 49 7e c2 3c 76 fd 0b bc f1 53 1c 3d
       -0.03976172 0.023741858 -0.0085443165 0.03816599
000050 e8 29 b0 3c bb 85 32 3d 88 2a 45 3c f8 1a 34 bd
       0.021504357 0.043584567 0.012034066 -0.043971032
000060 8e 91 65 bd 30 b2 46 3d 00 4e 25 bd ed 7d 5e 3b
       -0.056047015 0.048509777 -0.04035759 0.003394957
000070 f6 28 90 3d 14 18 62 3d 2e 65 1f bd b8 78 b1 3b
       0.07039063 0.055198744 -0.03891485 0.005416002
000080 7f 03 dd 3c 71 b6 4c 3d 15 a8 bb 3d 39 e4 ac bc
       0.026979206 0.049978677 0.091629185 -0.021104919
000090 f9 7b b9 3d 15 6d 68 bc 5b bf 8d 3d 98 38 8a bc
       0.09056849 -0.014186163 0.06921264 -0.01687269
0000a0 90 73 33 3d 3e dd 0f bd 66 e5 7a bd 23 ef 57 3d
       0.04381138 -0.035123102 -0.061253928 0.052718293
0000b0 43 2c 04 bc 7e 48 cd 3d ca c1 05 3d d6 6f 0f bc
       -0.008067193 0.100235924 0.032655515 -0.008754691
0000c0 56 0d 4b bd 47 0e 67 3d 8c e5 04 bc 6b f0 84 bd
       -0.049573265 0.0564101 -0.008111369 -0.064911686
0000d0 ac 45 5f bd 23 f4 7b bd 1f 7e 0e 3c 4c c2 b7 bd
       -0.054509804 -0.061512124 0.008697062 -0.08972606
0000e0 a0 fe 76 3d fa e0 cc 3c 63 7f 0b 3d 01 d6 11 bd
       0.060301423 0.025009621 0.034057032 -0.03560448
0000f0 e4 83 0f bc b4 94 78 3d 50 9d 10 bd 64 ea df 3c
       -0.0087594725 0.06068869 -0.035306275 0.027333446
000100 a5 af 6b bd cf c5 74 3c e9 59 e1 bd f9 f1 5b bd
       -0.057540555 0.014939739 -0.11003477 -0.05369756
000110 db 7d 66 bc 76 f6 a1 bd f5 17 7c bd d8 6c 59 3c
       -0.014068092 -0.07908337 -0.061546285 0.013270579
000120 84 3d 5a bd d5 27 96 bc 2d 3b 4e bc eb f8 c0 bb
       -0.053281322 -0.01832954 -0.012587351 -0.0058890483
000130 07 f7 12 3d 9b fb 7d bc 00 fc bb 3c 39 d9 64 3c
       0.035880115 -0.015501882 0.022947311 0.013967806
000140 cc 9f 45 bd d9 4e cc bb db 7c dd bc 03 cb b7 bd
       -0.048248097 -0.0062349853 -0.027037075 -0.08974268
000150 ce 3d 05 3d 79 96 cb 3c 92 6b 5c 3d 27 90 17 3d
       0.032529645 0.024852024 0.053813525 0.03700271
000160 c7 33 ea bc 48 fe 7c 3c 1d c8 0b bd 50 26 48 3d
       -0.028589142 0.015441485 -0.03412639 0.048864663
000170 21 6e 55 bd 09 d5 bd 3c 92 bb b4 bc 0c 95 c3 bd
       -0.05210698 0.023172872 -0.022062097 -0.09549913
000180 d5 89 d5 3c 4f ec c2 bc 3b bc 01 bc 3f 92 f0 3c
       0.0260667 -0.023794321 -0.007918413 0.02936661
000190 04 99 ca bd 8c 08 02 3d e1 c0 08 3e ce 53 aa 3d
       -0.09892467 0.031746432 0.13354827 0.08316766
0001a0 96 25 de 3b 26 77 74 3d 94 4a ad 3d 0d 55 b7 3b
       0.006779383 0.05968394 0.0846149 0.0055948556
0001b0 9f ee 0b 3c 7d 0d 66 bd 8f 20 52 3d e5 11 1b bc
       0.008540778 -0.056165207 0.05130058 -0.009464716
0001c0 0f 6d 12 bd 9b 5e 10 3c 84 92 bf bd 0d 64 98 3d
       -0.035748538 0.008811618 -0.093541175 0.07440958
0001d0 f2 1e d8 bc 03 7c 31 3d b9 93 5a bd 14 95 cb bc
       -0.026381943 0.043331157 -0.053363536 -0.02485136
0001e0 ff ab 91 3d f1 e4 5c 3d ae d4 19 3d 48 20 32 3d
       0.07112884 0.053929273 0.037556343 0.043487817
0001f0 38 e8 2d bc dc aa c5 bc 46 eb d2 bd 59 50 08 bd
       -0.010614447 -0.024129324 -0.10298781 -0.03327975
000200 b0 a0 10 3d f3 ea f4 bb 81 19 07 bb 47 35 11 3d
       0.035309494 -0.007474297 -0.0020614567 0.0354512
000210 0b 99 5a 3d 4e 35 af 3c af 42 37 3b 21 21 00 3d
       0.05336861 0.021387722 0.002796333 0.031281594
000220 e1 c0 ef 3c e4 06 c4 bc 54 ec 37 bd d3 5d b7 3c
       0.029266777 -0.023929067 -0.044903114 0.022383606
000230 d1 a3 30 3c b8 64 83 bd c8 d1 26 bd e7 8c 8b bc
       0.010781244 -0.06415695 -0.040727407 -0.01703496
000240 90 6d 61 bc 4e 6d a5 3d bc 22 00 bc fe 7d 06 3d
       -0.013759032 0.08077489 -0.007820781 0.032835
000250 f8 ab 60 3b 72 ec 21 bd 03 5b 60 bc 71 8b 16 bd
       0.003428219 -0.039532132 -0.013693574 -0.036754075
000260 ca b1 19 bd 48 88 51 3d a7 75 dd 3b 0a e2 04 3d
       -0.03752307 0.05115536 0.00675841 0.03244213
000270 7d 9b fc 3c 8e b2 96 bd 59 db 10 3d ca 7c bd bd
       0.030835861 -0.07358275 0.035365436 -0.09252317
000280 aa 8d 11 bd 22 8e b1 3c 39 f0 c1 3c 83 80 3d 3a
       -0.035535492 0.02167422 0.023674117 0.00072289276
000290 9a 6e 23 bd 1a f5 35 3d 3d 9f f9 3c 89 fc 63 3d
       -0.0399004 0.0444232 0.030471439 0.05566076
0002a0 db a5 98 3c c7 21 5e 3d f3 db e4 bc 17 c1 6d 3d
       0.018633774 0.05423143 -0.027936911 0.058045473
0002b0 56 80 2a bc b5 f4 34 bc 7f db 41 bb 89 46 f3 3c
       -0.010406574 -0.011044671 -0.0029580293 0.02969672
0002c0 14 cf a5 bd df eb a3 bd b2 15 ce bb 05 01 5f 3d
       -0.08096138 -0.08003973 -0.0062892074 0.05444433
0002d0 f1 74 6c 3d fa 6b 99 bc ee fb 65 bd 16 90 85 bc
       0.05772871 -0.018728245 -0.056148462 -0.016304057
0002e0 04 65 fd 3c 2a 49 24 3d 50 64 58 3d a3 ff f4 3a
       0.030931957 0.040108837 0.05283004 0.0018691908
0002f0 3c 8b 3f 3d 6e 9d e0 3c d0 57 09 3d 25 ef 08 bb
       0.046763644 0.027418818 0.03353101 -0.0020894494
000300 7c 1a 0c 3d 11 69 7b bd c5 08 ac 3d fa 7a a7 bc
       0.034204945 -0.061379496 0.0840011 -0.020444382
000310 75 97 a1 3c 86 25 e3 3d dd 13 77 3d e7 9e a8 bd
       0.01972554 0.110911414 0.060321677 -0.08233433
000320 1b 0a d6 3b d5 a0 70 bd 76 8d 59 bc ab 39 b1 3c
       0.0065319664 -0.05874713 -0.013278356 0.021633944
000330 8e f8 ce bc 7d f6 2f bd a2 e3 08 3d 20 43 5e bb
       -0.025265004 -0.04295968 0.033420213 -0.0033914521
000340 b9 5b f0 3c 2f 8c e0 3d c9 c1 d8 3c 2a 9e d2 3c
       0.029340612 0.10964238 0.026459591 0.025710184
000350 da 1f ae 3c 8c 72 8c bd 9a b7 d4 3c e8 39 a4 bd
       0.021255422 -0.068577856 0.025966454 -0.08018857
000360 4b c6 b6 3c 56 75 ba 3b d9 6e 93 3d 36 7a a5 3c
       0.02231135 0.005690257 0.07198877 0.020199876
000370 e6 30 29 bb 65 e0 31 bd 00 3d 9b 3b 90 c3 b3 3c
       -0.00258165 -0.04342689 0.0047374964 0.021943837
000380 2b 11 d2 3c 0b a8 a3 3c 9a 3d 52 3c 0b fb 82 3d
       0.025642952 0.01997759 0.01283207 0.06395539
000390 3c a3 93 3d dc 74 c1 bc e5 cf 4a bd 14 05 d1 3c
       0.07208869 -0.023615293 -0.04951467 0.025515117
0003a0 b1 a0 c5 bc da 36 84 bc 4d 05 66 bd 88 c1 7f bc
       -0.024124475 -0.016139437 -0.0561574 -0.015610106
0003b0 5c 79 b2 bc e4 67 20 bd d1 2c a5 bd 9a 82 c8 3c
       -0.021786384 -0.039161578 -0.08065189 0.024476338
0003c0 85 41 34 3d 35 d1 31 bc 02 f7 91 3d 08 d5 fd bc
       0.044007797 -0.0108531015 0.07127191 -0.03098537
0003d0 fa ed 59 3d cc 82 92 bc 65 f3 a6 3c 3c 7b 52 3b
       0.053205468 -0.017884634 0.020379731 0.003211691
0003e0 73 97 b2 3c a3 e0 0c bd 8c 23 0e bb 89 d9 a7 3c
       0.021800732 -0.034393918 -0.0021688668 0.020489471
0003f0 2a f6 c9 bb 7e a2 7c 3d c8 cd ff bc 46 a4 38 3d
       -0.0061633782 0.061678402 -0.031226054 0.04507854

enc.0.att.q_proj.bias f4 [64]
000000 ac 9c b3 3c 7d 4a 04 3c 62 35 3f 3d 7d 61 83 3c
       0.021925293 0.0080744 0.04668177 0.016037697
000010 92 bc 97 3d e9 7a 2c 3d 85 4e 48 bd 24 a7 9c bd
       0.07409014 0.042109404 -0.048903007 -0.07649067
000020 05 20 96 3d 8c 7f 9a bc 25 02 b5 3d c4 65 6d 3d
       0.07330326 -0.018859647 0.088383 0.05795838
000030 8c 7c 87 bd 17 2f 69 3d f4 00 24 3d cd eb 9d bd
       -0.06615552 0.056929674 0.04003997 -0.07710991
000040 f7 8c 5b bc 01 35 e8 bd 4d 08 18 3d c1 b7 02 3d
       -0.013400308 -0.11338235 0.03711729 0.031913523
000050 77 60 d3 bc d6 7f 6e 3d 05 ed b4 bd 43 72 a4 3c
       -0.025802834 0.058227383 -0.088342704 0.020074015
000060 45 92 f0 bc 22 b5 7c 3d ae 86 94 3d f3 16 0a bd
       -0.029366622 0.06169618 0.072522506 -0.033713292
000070 d7 3b 99 bd e1 25 84 3b c3 7c 1d 3d 77 a2 94 bc
       -0.07482117 0.004032836 0.03844906 -0.018143876
000080 b4 fb 15 3d 0d 60 27 bd 17 10 79 bd 74 cb c5 bd
       0.036616996 -0.040863086 -0.06080636 -0.09657946
000090 96 6c a3 bd 87 17 ca bc 3b 17 3d bd b7 41 60 3d
       -0.079796955 -0.024669422 -0.046164732 0.05475017
0000a0 df 90 b6 3d 07 e3 15 3d 35 0a 22 3d b1 c1 42 bd
       0.08914351 0.036593463 0.039560515 -0.047548
0000b0 69 83 24 bd 62 b0 9f bd 0b 57 da 3d ca 44 6b bc
       -0.040164385 -0.07797314 0.106611334 -0.014359662
0000c0 2c d2 9c bc 48 ef a7 bd c0 b1 b2 38 50 34 b3 bd
       -0.019143187 -0.08199936 8.52081e-05 -0.08750212
0000d0 42 99 9e 3d 2b 7e 9f bd 20 73 97 3c 79 d5 78 3d
       0.07744075 -0.077877365 0.018487513 0.06075046
0000e0 9a 6c 96 bd 73 20 54 3d 59 a8 f8 3d 6a 97 90 3d
       -0.07344933 0.05178876 0.12141485 0.0706013
0000f0 67 c4 20 3e cb ad 81 bd aa a0 db 3c a9 5e 86 3d
       0.15699922 -0.063319765 0.026810009 0.06561024

enc.0.att.k_proj.weight f4 [64, 64]
000000 b2 f8 be 3c b0 9f 9b bc 09 6c 4b 3d 40 31 b6 bc
       0.023311947 -0.018997043 0.049663577 -0.022240281
000010 fd d0 8a 3b a1 1f c2 3b 46 3d f7 3c 1f 41 2e bd
       0.004236339 0.0059241806 0.030180585 -0.042542573
000020 a5 68 b5 bc 18 a1 c8 bc 0c b2 0f bd 08 c1 14 3d
       -0.022144625 -0.024490878 -0.035081908 0.0363169
000030 68 c7 7c 3c bc 4c 93 bd b0 c3 23 bc 87 e1 28 3d
       0.0154284015 -0.0719237 -0.009995386 0.041230705
000040 6b de 0d bd 38 da 84 3d b1 68 31 bd 2a 50 97 3c
       -0.034635942 0.064869344 -0.043312732 0.018470842
000050 4e c2 c5 3c e8 b1 99 3c fa b6 49 3d 05 74 36 3d
       0.024140503 0.01876159 0.049246766 0.04454424
000060 53 be bb bc b8 6d 0f 3c fd 86 9f bb 31 cb 43 3d
       -0.022917902 0.008754186 -0.004868387 0.0478012
000070 69 8d b2 3c 53 39 56 bd 2a 98 2d 3d 9c 6b 58 bd
       0.021795945 -0.052300762 0.042381443 -0.052837
000080 00 6c 0b bd b3 a2 ec bc 0a ce e5 3b b2 09 6e 3d
       -0.034038544 -0.028886175 0.007013087 0.058114715
000090 82 a8 d3 3c ae f2 15 bd e3 e7 11 bd e7 53 c0 bc
       0.025837187 -0.03660839 -0.035621535 -0.023477508
0000a0 8f 8d 3d bc 26 29 55 3c 79 25 11 bd 9a 14 29 bd
       -0.011569395 0.013010299 -0.035436127 -0.041279413
0000b0 f2 51 8f bd 0a f2 1a 3d fc 1f 13 3d a5 01 5f 3d
       -0.06998052 0.037828483 0.035919175 0.054444928
0000c0 60 b4 05 3d ed dd 0e bd 17 1c b1 bc df ec 7f 3d
       0.032642722 -0.034879614 -0.02161984 0.062481757
0000d0 a9 d9 bd bc 9f 4d c7 3d 75 e1 c5 bc 67 03 78 bd
       -0.023175078 0.09731602 -0.024155358 -0.06055012
0000e0 d5 70 24 bd 67 0f 91 bb 6b 8c ff 3c 0f 0a 84 3c
       -0.040146668 -0.004426885 0.031194886 0.016118078
0000f0 32 a7 95 bc c9 cc 5f 3c 05 c9 3f bd 19 09 7c bd
       -0.018268202 0.013659664 -0.046822567 -0.061532114
000100 b4 42 bd bd b2 10 19 bd 75 b5 2e be b2 92 0e 3d
       -0.09241238 -0.037369438 -0.17061408 0.03480787
000110 2a 95 83 3c 99 c5 5a 3c 4d 44 28 3c 2e 52 43 3c
       0.016062338 0.013352775 0.01027019 0.011921449
000120 62 af 34 3d 6c 4b 01 3d 46 cb 81 bc ff 59 25 3c
       0.04411257 0.03156607 -0.015843999 0.0100922575
000130 74 67 53 3c de 6a e7 bd 84 a2 1d 3c 61 0b 67 bd
       0.012903083 -0.1129968 0.009621266 -0.056407336
000140 05 2a 22 3d fa 8d 70 3a 09 11 33 bd 3e ef 18 bd
       0.039590854 0.00091764296 -0.043717418 -0.037337534
000150 59 44 28 3d 5c 84 fc 3c ce b7 4a bc c3 c4 40 bd
       0.041080806 0.030824833 -0.012372924 -0.047062647
000160 b4 2c 22 bd 3b 7f ae 3c 9c 42 9f bd 40 ee 62 bd
       -0.039593413 0.021300903 -0.077763766 -0.055402994
000170 a8 3a 3b bd c6 d3 84 3d ac bf 64 bd 26 2f 8d bd
       -0.045710236 0.06485705 -0.055846855 -0.068937585
000180 29 ac 6a 3c 7e 86 2f bd 95 ae 24 bd 9f bf 2e 3d
       0.014323273 -0.04285287 -0.040205557 0.042663213
000190 83 21 c3 bd 2d 14 34 3c cf 41 86 3d 49 24 26 bd
       -0.09527876 0.010991138 0.06555521 -0.040561948
0001a0 5f 51 47 3c 48 af ba 3d d8 79 c2 bb 43 be ab 3a
       0.0121653965 0.091154635 -0.005934935 0.0013102967
0001b0 17 a5 b5 3c f3 15 8a bd 91 08 c3 bd eb 40 3b 3c
       0.022173448 -0.06742468 -0.09523118 0.011429052
0001c0 56 0f c8 bc ca 0e 8b 3d 06 1b d2 bd bc 35 1a bd
       -0.024421375 0.0678993 -0.102590606 -0.0376489
0001d0 0a ab 8f 3d 18 77 4c 3d 6a c5 1d bb dc 2f ab bd
       0.07015045 0.049918264 -0.0024073967 -0.08358738
0001e0 0f d7 9a 3d 95 f7 3e 3d 4a 01 20 bd 8e cf d6 3d
       0.075605504 0.04662283 -0.03906373 0.10488807
0001f0 77 35 79 bd dd 87 f3 bb 36 8b ac bc 5d 7a d3 3c
       -0.060842004 -0.0074319676 -0.021062475 0.025815183
000200 74 ed 92 bb 71 7f 45 3b 05 62 f5 3b b6 6d 39 3d
       -0.004483873 0.0030135775 0.0074884915 0.045270644
000210 f7 37 35 3c f6 e9 4c 3d 94 10 92 bd 52 7d 25 bd
       0.011060706 0.05002781 -0.07132068 -0.040402718
000220 1f 38 8e bc 60 70 78 bd cd 6e c4 3d ff c6 18 3d
       -0.017360745 -0.060654044 0.09591446 0.037299152
000230 ab 55 3b bd ff f7 95 bd fe ac 93 3d 64 66 16 bc
       -0.045735996 -0.07322692 0.0721073 -0.009179685
000240 9d 2d fb bc 43 22 81 bc dd 9a 30 bd 6c 30 4b 3c
       -0.030661399 -0.015763408 -0.04311644 0.012401681
000250 e2 a4 d3 bc d7 07 15 bd a7 71 82 bd cb 24 a4 bc
       -0.025835458 -0.03638443 -0.06369334 -0.020037076
000260 6e aa 06 3d 5e b9 6d 3d f3 6c ba 3c 68 14 a0 3b
       0.03287738 0.058038108 0.02275703 0.004885245
000270 57 be 42 ba f9 4e dc bc d0 4d 3f bc a4 2a a1 bd
       -0.00074288755 -0.026893126 -0.011676267 -0.07869461
000280 bb 37 cc bc 3b 3f 22 bb 5a fd 91 3d 9a 5a 80 bd
       -0.024928918 -0.0024756927 0.07128401 -0.06267281
000290 dd 06 99 3c 51 5b 8d 3d a5 0b 98 3d 9f 40 86 3d
       0.01868003 0.06902183 0.07424096 0.06555294
0002a0 da 5f 18 3d 41 8e 92 3d dd 09 1e 3c 4f 1b c0 3c
       0.037200786 0.07156039 0.009645906 0.023450522
0002b0 60 3c 9d 3c 5e 2a c0 bc dc 83 08 bc d2 3e 81 3d
       0.019193828 -0.023457702 -0.008332219 0.0631081
0002c0 98 92 3c 3d ca 8a 62 3d af d9 a6 bc b3 3c 11 bd
       0.04603824 0.05530814 -0.020367472 -0.035458278
0002d0 34 8a 11 3d 6e e6 11 3d bf 51 2a bd c3 50 96 b9
       0.03553219 0.035620145 -0.041581865 -0.00028670402
0002e0 63 c5 43 bc 18 1f 89 3d 78 5d d5 bb 72 c4 12 bc
       -0.011948916 0.06695384 -0.0065113865 -0.008957969
0002f0 c8 fb 42 bc 33 5c 0b 3d ed 40 ab bc 18 66 e4 bc
       -0.01190085 0.034023475 -0.020904982 -0.027880713
000300 a2 ea c3 3d a1 b4 af bd 62 65 74 3d 10 63 2b bd
       0.09566237 -0.08579374 0.059667 -0.04184252
000310 bf c2 6c 3c f5 35 bd 3c 5d 72 83 bb 83 5f 0d 3d
       0.014450728 0.023097018 -0.004011436 0.034514915
000320 2d bd 86 bd 17 ad 23 3c 74 d6 8c 3b 03 af 87 3d
       -0.06579051 0.009989998 0.0042980257 0.06625178
000330 2a 16 eb bc ce 74 a7 3d 28 d1 f0 ba 40 86 26 3d
       -0.028697092 0.081765756 -0.001837288 0.040655375
000340 b4 a9 58 bd 46 c6 c5 3b 97 d9 6a 3d b2 53 77 bd
       -0.052896217 0.006035599 0.057336416 -0.060382552
000350 bd c1 3c 3d 4b bd b6 3c 60 e9 3d bd 34 c8 cc bc
       0.0460832 0.022307059 -0.046365142 -0.024997808
000360 e3 92 8f 3d 37 66 22 bd 6f b2 79 3d 55 8c b8 3c
       0.07010438 -0.03964826 0.060961183 0.022527853
000370 6f 11 b7 3d 15 8b 86 bd b4 4b d3 bc da e8 53 3d
       0.08938872 -0.065694965 -0.025792934 0.051735736
000380 6c 81 49 bd b8 fa a1 3b 23 e0 6a 38 55 f5 2c 3d
       -0.049195692 0.004943218 5.599869e-05 0.042226154
000390 84 b4 a1 3d fa 7d a5 bd 43 59 0a 3d de cb 88 3d
       0.07895759 -0.08080669 0.033776533 0.066795096
0003a0 3a 05 ee 3c 22 d3 19 3d 6a 77 fb 3a 7f b9 16 3c
       0.029055227 0.037554868 0.0019185368 0.009199499
0003b0 67 23 98 3d cb bd 60 3d a2 65 0e bc f9 27 a6 bc
       0.074286275 0.0548685 -0.008691223 -0.020282732
0003c0 48 63 fe 3c 63 6f 8e 3d e3 92 78 3c b8 e7 c1 bc
       0.0310532 0.06954839 0.015171739 -0.023670062
0003d0 08 f6 ad 3c 7c 72 65 3b b6 6e e7 39 54 3c 5a 3d
       0.02123548 0.0035010865 0.0004414224 0.05328019
0003e0 0f 3d 6a bd 42 2d 5c 3c 38 fb 4f bd dc 38 d1 bd
       -0.057187136 0.013438525 -0.05077669 -0.10215923
0003f0 46 8b 5c bc bd 17 37 3d ec a8 1f 3c e5 a8 8d 3a
       -0.01346094 0.044700373 0.009744864 0.0010807781

enc.0.att.k_proj.bias f4 [64]
000000 09 4f 08 b6 d1 37 e6 32 62 18 c6 b2 85 3a 0f b3
       -2.0311584e-06 2.6800906e-08 -2.3061322e-08 -3.3348005e-08
000010 4a d1 43 b3 01 76 9b b2 e5 ca aa 37 bb ed 57 32
       -4.5592323e-08 -1.8098037e-08 2.036006e-05 1.2568701e-08
000020 9f f2 7c 32 8f e3 81 b2 9c 40 4e 36 d0 39 8a 33
       1.4723496e-08 -1.5121058e-08 3.0734e-06 6.436642e-08
000030 b9 2a bb 37 bf 46 8a b2 42 2f 82 31 8c 06 81 33
       2.2312031e-05 -1.6097486e-08 3.7888706e-09 6.0082215e-08
000040 cb cf 93 b1 84 b8 1e b2 49 fc 47 32 b4 4d 87 32
       -4.3018864e-09 -9.238764e-09 1.16406875e-08 1.5751404e-08
000050 50 35 1d 33 44 6e ab 36 6a 80 36 37 df 2a ce b2
       3.66029e-08 5.1090337e-06 1.0877944e-05 -2.4001052e-08
000060 85 37 6d 35 f1 65 1e 36 e8 ba b8 32 f5 1a 08 b2
       8.837017e-07 2.3603172e-06 2.1505414e-08 -7.922371e-09
000070 19 86 85 b0 33 cf 8e 32 d4 e0 48 b7 37 69 a5 b2
       -9.715136e-10 1.6625199e-08 -1.1973276e-05 -1.9256374e-08
000080 75 07 96 32 e6 14 73 32 cc 35 8a b7 ba ae b1 33
       1.746569e-08 1.4149213e-08 -1.6475933e-05 8.2739874e-08
000090 ec 18 03 33 61 c4 e9 31 b8 db b9 b4 4f 7f cf 35
       3.052348e-08 6.803518e-09 -3.4618802e-07 1.5459754e-06
0000a0 a3 e8 6f 2b 96 15 87 36 2f 47 06 37 94 27 8a 32
       8.5232705e-13 4.0258265e-06 8.003596e-06 1.6083312e-08
0000b0 2b 11 0f 33 d1 be 46 34 ed 24 71 33 c6 cf 99 b7
       3.3310396e-08 1.8509606e-07 5.614577e-08 -1.8335773e-05
0000c0 d4 41 3b b2 c3 9d b1 b7 d6 10 40 33 25 f0 b3 35
       -1.08998e-08 -2.1173508e-05 4.4718796e-08 1.340643e-06
0000d0 90 c5 d6 31 f2 2a a9 b4 52 04 21 37 8e 18 12 33
       6.25068e-09 -3.150995e-07 9.597354e-06 3.4015606e-08
0000e0 23 72 1c 33 10 8c 0b 33 b7 f6 e1 b1 2a 9a 1f b3
       3.6425387e-08 3.2490846e-08 -6.57641e-09 -3.7160284e-08
0000f0 d5 c7 68 34 7f 72 56 b3 e1 6e 16 34 76 3f 9f 35
       2.1679382e-07 -4.992989e-08 1.4010176e-07 1.1864893e-06

enc.0.att.v_proj.weight f4 [64, 64]
000000 75 64 ba bd 00 88 81 bd f1 77 b7 bd 41 ea 44 bd
       -0.09101192 -0.06324768 -0.08958424 -0.048074964
000010 de 58 a7 3c 2c 33 59 bd 6c 1e 03 bd 9d 97 7d bd
       0.020428117 -0.053027317 -0.032011434 -0.061912168
000020 c5 5b 30 bd 10 7a c2 bd 08 ea f5 3b 70 ac 1f 3d
       -0.04305627 -0.09495938 0.0075047053 0.03898281
000030 78 35 4b bd 2e 32 98 3b ca 8e b3 3d 09 73 5f 3d
       -0.04961154 0.0046446538 0.08767469 0.054553065
000040 9e aa d5 bd 6a ae b2 bd b1 ca 98 3d d5 33 45 bb
       -0.10432933 -0.08724673 0.07460535 -0.0030090709
000050 64 f7 50 3d b8 66 9f 3d ff e3 a4 bd 26 99 95 bd
       0.05101718 0.07783264 -0.08051299 -0.07304601
000060 3e db 48 3c 9b ee c3 3c ce a7 58 bd cf 70 4c 3d
       0.012259303 0.023917487 -0.052894406 0.04991227
000070 46 cd bf 3d e9 2f 5e bb ab cc 10 3d 6d 28 d4 bd
       0.09365325 -0.0033903068 0.035351437 -0.10359273
000080 46 6e 9c bc 68 c7 ba bd b2 76 c3 3d 1c 0f 31 3d
       -0.019095551 -0.09120065 0.09544124 0.0432273
000090 71 f7 8d 3d d3 4f eb bc 23 ad 1e 3d d9 d7 18 3d
       0.06931961 -0.028724587 0.038739335 0.037315223
0000a0 11 66 14 bd 6f b0 05 bd 80 1b 81 3d 18 6a f6 39
       -0.03623015 -0.032638963 0.06304073 0.00046999822
0000b0 27 52 c8 bc 99 a6 dd 3a 77 5f 97 bd 46 c4 fa bb
       -0.024453236 0.0016910612 -0.07391255 -0.007652792
0000c0 d0 41 0a 3c 64 13 44 3d 9a 35 38 bd 58 10 15 3d
       0.0084385425 0.047870055 -0.044972993 0.03639254
0000d0 20 28 28 3c 3f c4 d9 3d 44 84 50 3d c8 75 bb bd
       0.010263473 0.10633134 0.05090739 -0.09153324
0000e0 5c 7d 00 bd 55 5e 3c bc 89 9f 4c bd 9d d0 a9 bc
       -0.031369552 -0.0114971 -0.049956832 -0.020729357
0000f0 70 79 20 bc 5b 19 2c 3c e7 a8 11 bd f3 4a 97 bc
       -0.009794578 0.010504092 -0.03556147 -0.018468356
000100 14 81 5f bd 87 d2 34 3c b0 6a 42 3d 47 1a 81 3c
       -0.054566458 0.011036522 0.047465026 0.0157596
000110 29 0d a8 3d 46 99 93 3b ac 49 dc 3d e0 01 ae bc
       0.08205635 0.0045043556 0.10756239 -0.021241128
000120 a9 41 a3 3b 89 75 81 bd 76 00 b0 bd 4c 9b 28 bd
       0.0049821925 -0.06321246 -0.08593838 -0.041163728
000130 94 17 0d 3d 5d f1 ce 3b ab 23 b9 3c b7 05 fb 3c
       0.034446314 0.006315394 0.022600016 0.030642373
000140 f3 19 ee bd 6d 21 ce 3d 48 7b 7b bc 7b 61 9f bd
       -0.11626043 0.10064969 -0.015349217 -0.07782265
000150 c9 8f 58 3d 9f 49 da 3c d2 6b 61 bd 45 13 5b 3b
       0.0528715 0.026646433 -0.055034466 0.0033428234
000160 15 53 98 3d 2c b8 ad 3c 46 d9 0e bd ae 42 94 bc
       0.07437722 0.021205984 -0.034875177 -0.018098202
000170 e6 71 3a 3d 82 5f d4 3d b0 b9 ec bc ce 4b cd 3d
       0.04551878 0.10369779 -0.028897136 0.10024224
000180 25 fc 88 bd 30 ec 9c 3d 78 fa a8 3c 0b 8a 55 bd
       -0.06688718 0.07662237 0.020627245 -0.0521336
000190 64 70 a7 3d 7b 16 b7 3d f1 d6 22 bd bb 2e d9 bd
       0.08175734 0.08939835 -0.039755765 -0.10604616
0001a0 74 30 48 bd 4f 43 4f bc e7 91 c4 bd 8a e4 89 bd
       -0.048874334 -0.012650325 -0.09598141 -0.067330435
0001b0 d9 4d 29 bc 8a 66 cd bb 23 75 cd ba 27 8f 7d bd
       -0.010333502 -0.006268327 -0.0015675168 -0.0619041
0001c0 6b f3 2e bd 5e 10 27 3d f6 25 fc 3b 81 87 80 3d
       -0.04271261 0.040787093 0.007694955 0.06275845
0001d0 ba e8 5f bd d4 15 3c bd 87 4b 05 bd 01 a0 09 bd
       -0.054665305 -0.045919254 -0.03254273 -0.033599857
0001e0 23 89 61 3d fd dc 99 bc 84 03 de 3d b6 3e 5c 3d
       0.055062424 -0.018782133 0.10840514 0.053770743
0001f0 d4 51 a6 bd 89 02 eb bc 69 9c 2e 3d ee 1c 80 bd
       -0.08121076 -0.028687732 0.042629633 -0.06255518
000200 c3 ca b0 3d 5f 3a 05 3d 2c 85 89 3c 7b 5d ae 3d
       0.08632424 0.03252637 0.016787134 0.08513924
000210 be 93 e5 bd 12 5f 35 bd ae 1f 45 bd 53 25 8d bd
       -0.1120982 -0.04428012 -0.048125915 -0.06891885
000220 96 98 99 3d 1f 84 61 3d f5 4f ba 3d dc 01 c9 3d
       0.074998066 0.05505764 0.09097282 0.09814808
000230 47 c4 38 bd c5 b9 73 3c da e6 11 3d 59 3f 30 bd
       -0.04510906 0.014875834 0.035620548 -0.043029163
000240 db 85 86 3d fd f5 d3 3d 9b 57 6f bd b5 44 da bc
       0.065685 0.10349653 -0.058433156 -0.02664409
000250 e2 1b d6 3c 87 cf 8c bd 27 1d 11 bc f9 b6 2c 3d
       0.026136342 -0.0687552 -0.008857048 0.042166684
000260 21 15 de 3b 77 9e 90 bd 4e 0e f3 bc 03 9a 28 3b
       0.006777421 -0.07061475 -0.029669907 0.0025726564
000270 ae 1b ac 3d 38 39 6d bd 4f b5 28 bc 31 c1 6e bc
       0.08403717 -0.057915896 -0.010297134 -0.014572428
000280 ad e1 d0 3d 96 58 77 3d c7 79 01 bc 91 3f 20 bd
       0.10199294 0.060387217 -0.007902569 -0.03912312
000290 13 4c f1 3d 20 e3 6e 3c f8 cf 90 bc e3 b3 97 3d
       0.11782088 0.014580518 -0.017677292 0.074073575
0002a0 3d c6 03 3d 27 b1 95 3c 62 a2 d9 3d 0f c9 90 bd
       0.032171477 0.01827295 0.10626675 -0.07069599
0002b0 20 9f 91 3d ba db 0a 3d 50 35 87 bd a6 e7 ce 3d
       0.07110429 0.033900954 -0.066019654 0.10102777
0002c0 69 52 1b 3d 1b 9a 81 bd ad f4 c1 3d dd 5d c1 bd
       0.03792039 -0.063282214 0.09470496 -0.09441731
0002d0 fb 00 ba bc 9b b2 3a 3d 8c 62 88 3d ac 3c a1 bd
       -0.022705546 0.045580488 0.06659421 -0.078729
0002e0 8b fc af 3d c6 93 be 3d 75 f3 64 3d f0 3d 56 3d
       0.085930906 0.09305529 0.05589624 0.052305162
0002f0 ab df 5c bd 5b d3 b9 3d aa f0 02 bb 59 d5 b9 38
       -0.053924244 0.09073516 -0.0019979873 8.8612265e-05
000300 48 64 08 bd 3b 7a b8 3c 67 c4 ca bc 20 ef 95 bd
       -0.03329876 0.022519222 -0.024751855 -0.07321
000310 97 93 a9 bd f0 0c 50 bd 0a 5a d8 bb da b5 82 bd
       -0.08280104 -0.05079359 -0.0066025304 -0.06382342
000320 e1 ea c0 bc 4e c3 73 bd 16 6f 96 bd 9c 01 94 3d
       -0.023549499 -0.05951243 -0.07345407 0.072268695
000330 75 77 34 bd af b6 03 bd 2f 22 ad 38 ee 35 1e bb
       -0.044059236 -0.032156643 8.25565e-05 -0.0024141031
000340 11 d2 59 bd 2a 81 45 3d 3b 92 91 3d a7 ff 37 3d
       -0.05317885 0.048218884 0.071079694 0.044921543
000350 da 58 b7 bd 77 3a d7 3d 12 ec 53 3d 0d f6 52 3c
       -0.08952494 0.10509198 0.051738806 0.012876046
000360 a5 29 0a 3d e1 db 94 bd e8 07 c9 3c 1a 9c d6 3d
       0.03373112 -0.07268501 0.024539903 0.10478993
000370 2e 0c ff 3c 04 be e8 39 e0 a1 c5 bd 20 8f 49 bd
       0.031133737 0.0004439206 -0.09650016 -0.04920876
000380 74 47 c9 bd 6a e6 a6 3d e4 a3 90 bc b0 2a ee bc
       -0.09828082 0.08149417 -0.017656274 -0.02907309
000390 64 6e d2 bd 92 20 b7 bd d2 c3 cb bc de f7 53 3d
       -0.102749616 -0.08941759 -0.024873648 0.051750056
0003a0 17 24 5e bc 8d 23 53 3d a6 f5 e6 3d d1 22 7f bd
       -0.013558409 0.051547576 0.112773225 -0.062289063
0003b0 a9 7e df 3b 53 ff 82 3b 73 5c d8 bd 24 63 a9 bc
       0.006820519 0.003997722 -0.10564508 -0.020677157
0003c0 12 0b d7 3c 08 e0 17 bd e3 d1 bd bd ac b5 c0 3d
       0.026250396 -0.037078887 -0.09268548 0.09409651
0003d0 b7 0c 2b 3d 3d 9e c1 bd 49 5c c2 bd 64 d5 a1 3c
       0.041760173 -0.0945401 -0.09490258 0.019755073
0003e0 c4 ee 58 bd 47 2c 00 3d 34 2a 0d 3d a1 46 c2 3c
       -0.05296208 0.031292226 0.034464076 0.02371532
0003f0 73 ee 76 3d a3 0b 70 3d 99 75 d2 bc 03 40 26 3d
       0.060285997 0.058604848 -0.02569084 0.04058839

enc.0.att.v_proj.bias f4 [64]
000000 5b 73 d4 3d 97 67 34 3d 38 7d 86 3d 02 39 65 bd
       0.10373565 0.044044103 0.06566852 -0.05596257
000010 c1 10 3f bd 8a 56 81 3d 4c 14 be bd a0 45 62 3d
       -0.046646837 0.06315334 -0.09281215 0.05524218
000020 c6 7e 68 bc 4a 42 82 3d b7 e6 97 bd aa fd 61 bd
       -0.014190381 0.063603 -0.07417052 -0.055173554
000030 25 37 b6 bd fe 2c 75 3d fc d1 03 bd ad ea 30 bd
       -0.08897237 0.05985736 -0.03218268 -0.043192554
000040 54 50 e9 bd ed 17 ac 3d 1a 60 e2 3d 88 56 84 bd
       -0.113922745 0.08403001 0.11053486 -0.06461817
000050 2b a1 e0 bc ef 83 1b bd a1 7d 77 bd ef c3 9f bd
       -0.0274206 -0.03796762 -0.060422543 -0.07801043
000060 15 8d 87 bc f4 9d 4f 3d 0f ab 9e bd bc 51 e9 3d
       -0.016546765 0.050687745 -0.077474706 0.11392543
000070 89 a4 5e bc da eb b0 bd a3 04 9e bd 2c e3 e2 3d
       -0.013589033 -0.08638735 -0.07715728 0.11078486
000080 a5 a0 74 bc ae 62 83 3d 33 d6 e0 3b 85 db ca 3d
       -0.014930879 0.06415306 0.006861472 0.09905151
000090 16 90 9f bd 51 5f 07 3d fd aa 4e 3d 30 a4 29 bd
       -0.07791154 0.033049885 0.050456036 -0.041416347
0000a0 11 ca a7 bd d1 63 c0 bc 38 1d ba 3a 9e f7 7e bd
       -0.08192838 -0.023485096 0.0014199382 -0.062247865
0000b0 48 f8 ae bd 9b aa 02 3d a2 b5 3e 3c a5 33 8e bd
       -0.0854345 0.031900983 0.011639984 -0.06943444
0000c0 e3 55 37 bd 42 29 1d b9 41 b1 1f 3d bf 7b 3a 3d
       -0.044759642 -0.00014988057 0.038987402 0.04552817
0000d0 b3 b5 ce 3d 30 e9 81 3c 49 88 0f 3d 83 11 b9 bd
       0.1009325 0.015858263 0.03504208 -0.09036543
0000e0 b8 51 81 3d 14 ae 39 bd 2a 88 98 3d 05 4a c4 3c
       0.06314415 -0.04533203 0.07447846 0.023961077
0000f0 e6 6e 5f bc c4 61 1f bd b7 84 67 3d 34 77 61 3d
       -0.01363728 -0.038911596 0.05652305 0.05504532
